assignments/cart_pole_optimal_control/cart_pole_optimal_control/dqn/dqn_cartpole_earthquake.pth (torch, 73000 bytes, 6 tensors)

fc1.weight f4 [128, 5]
0	0x3f76da9d	0.9642733
1	0x3f7e48a3	0.99329585
2	0x408240f4	4.070429
3	0x3fcdd51e	1.6080663
4	0x3ea3848b	0.3193706
5	0xbf8b616b	-1.0889105
6	0xbe17b9fe	-0.14817044
7	0x4086d1fe	4.213134
8	0x4014f484	2.327424
9	0xbe1bc69a	-0.15212479
10	0xbe8f7ebf	-0.28026387
11	0xbdd8e5cb	-0.105907045
12	0xbe16a203	-0.1471024
13	0xbe13950a	-0.14412323
14	0x3ce28cb0	0.027654976
15	0x3c47f162	0.012203546
16	0xbe287346	-0.16450223
17	0xc035ab38	-2.8385754
18	0xbf779cd6	-0.9672369
19	0xbd1a2727	-0.037634995
20	0x3ff2cc43	1.8968586
21	0x3f5701e6	0.8398727
22	0x40a7c3a7	5.2426333
23	0x3f38667c	0.7203138
24	0x3eabcaff	0.3355331
25	0x3f42ee9b	0.76145333
26	0x3ef8411c	0.48487175
27	0x4010d2b6	2.2628608
28	0x3f828e23	1.0199627
29	0xbf0a631f	-0.54057497
30	0xbe732871	-0.23745896
31	0x3c3b3dae	0.01142828
32	0x3fffd1c9	1.9985896
33	0x3fbd91c7	1.4810113
34	0x3ec4d052	0.38440186
35	0x3fa34503	1.2755436
36	0x3eccb82f	0.3998427
37	0x4077f10b	3.874087
38	0x3f7c2012	0.98486435
39	0x3de4f38f	0.111792676
40	0x3ed8e47f	0.4236183
41	0x3f388c80	0.72089386
42	0x40330af0	2.7975426
43	0x4000328c	2.0030851
44	0x3e9ba28f	0.3039746
45	0x3f4dd9d1	0.80410486
46	0x3fa47f23	1.2851299
47	0x402c1172	2.6885648
48	0x3f04669a	0.5171906
49	0x3f2af99e	0.66787136
50	0xbf2dea8e	-0.6793603
51	0x3e3554ab	0.1770808
52	0x404bec14	3.186284
53	0x40175889	2.3647788
54	0xbdca023d	-0.09863708
55	0x3db58ef5	0.088651575
56	0x3f11257d	0.5669783
57	0x4099b3a7	4.80318
58	0x400035d4	2.0032854
59	0x3ea18beb	0.3155206
60	0xbe5f883a	-0.2182931
61	0xbec32fbb	-0.38122353
62	0xc0260cb8	-2.5945263
63	0xbf66a722	-0.90098774
64	0xbea5cab7	-0.32381222
65	0x3ee4bbcb	0.44674525
66	0xbdbcef9a	-0.09225388
67	0xc0ab7741	-5.3583074
68	0xc01d7b22	-2.4606404
69	0xbe80dfc0	-0.25170708
70	0x3fa5ffac	1.296865
71	0x3ec6e781	0.38848498
72	0x3f472881	0.7779618
73	0xbe1dc2ab	-0.15406291
74	0x3e28189b	0.16415636
75	0xbf385953	-0.720113
76	0xbe10c2a5	-0.14136751
77	0x405653d2	3.348866
78	0x40406639	3.0062392
79	0xbe5bb40b	-0.214554
80	0xbd1ce974	-0.038308576
81	0xbf06725c	-0.5251825
82	0xc00869cd	-2.1314576
83	0xc0051df4	-2.0799532
84	0xbedb3c07	-0.42819235
85	0x3dbe3239	0.09286923
86	0xbea31127	-0.31849024
87	0xc02e3fca	-2.7226434
88	0xbfb689a3	-1.4260753
89	0xbe243573	-0.16036014
90	0x3f6c61d3	0.9233677
91	0x3f182fcb	0.59447926
92	0x40badba2	5.8393106
93	0x3f8a693d	1.0813366
94	0x3ed0d2dc	0.40785873
95	0x3e48dcbb	0.19615452
96	0x3f2c3769	0.6727205
97	0x3d57f18a	0.052720584
98	0xbeb8dd91	-0.36106542
99	0x3e9a7bd1	0.3017259
100	0xbeb51d0b	-0.3537372
101	0xbf23aa14	-0.63931394
102	0xc0178fdc	-2.3681555
103	0xbfabd7af	-1.3425196
104	0xbe8cf552	-0.27530915
105	0xbeaf61e5	-0.34254375
106	0xbf51764b	-0.81821126
107	0xc0948a8f	-4.641914
108	0xc00aeea4	-2.1708155
109	0xbea02186	-0.31275576
110	0x3f51b734	0.8192017
111	0xbec63bd0	-0.38717508
112	0xc099120b	-4.7834525
113	0xc046b059	-3.1045134
114	0x3b881a33	0.004153514
115	0x3f720d11	0.9455119
116	0x3de1d0e9	0.110261746
117	0xbfdd3934	-1.7283082
118	0xbe290e45	-0.1650935
119	0xbb3fadbe	-0.0029247846
120	0x3eaa2a58	0.3323543
121	0xbd3c6add	-0.04600035
122	0xbf236b09	-0.638352
123	0xbe2ce1e0	-0.1688304
124	0xbe4389cb	-0.19095533
125	0xbf2d4997	-0.67690414
126	0x3e73175e	0.23739383
127	0x4053471d	3.3012154
128	0x40150514	2.328435
129	0xbda4bbcd	-0.08043633
130	0x3eeaf27a	0.4588812
131	0x3f4d100b	0.80102605
132	0x40439830	3.0561638
133	0x3fdbb844	1.7165608
134	0x3eb26b3e	0.34847444
135	0xbf00880e	-0.502076
136	0xbea14864	-0.31500542
137	0x3f5096d6	0.8148016
138	0x3f8a65e4	1.0812345
139	0xbe6dbbf8	-0.23216236
140	0x3df6ebd4	0.120566994
141	0xbee977ac	-0.45599115
142	0xbf027bed	-0.50970346
143	0xbf78e4a6	-0.9722389
144	0xbe3edc19	-0.18638648
145	0x3f08e332	0.5347167
146	0x3f3de985	0.7418445
147	0x4098bd2e	4.773093
148	0x3f8251fe	1.0181272
149	0x3f17584c	0.59119105
150	0x3e746160	0.2386527
151	0xbf089e6b	-0.53366727
152	0xc070cfb6	-3.7626777
153	0xc02576b2	-2.5853696
154	0xbeaf4727	-0.34233972
155	0xbf1e3215	-0.6179517
156	0x3f06ec9c	0.5270479
157	0x3f79214e	0.97316444
158	0x3f74c9fd	0.9562071
159	0x3e30bfd2	0.17260674
160	0x3d6d9d5f	0.05801141
161	0xbe7da995	-0.24771722
162	0xc046e8be	-3.1079555
163	0xbfa86adb	-1.315761
164	0xbd5bba10	-0.05364424
165	0x3edf8387	0.43655035
166	0x3ef2ecb1	0.47446206
167	0x405e9089	3.4775717
168	0x3f22f267	0.63651127
169	0x3e8a7b91	0.270474
170	0xbe387aa8	-0.1801554
171	0x3e774046	0.24145612
172	0x3fbd7cb3	1.480368
173	0x3f093dd0	0.53609943
174	0x3e85e7dd	0.2615346
175	0x3d760439	0.06006262
176	0x3e32a144	0.1744433
177	0x408563af	4.1684184
178	0x3fb42a24	1.407536
179	0x3ea989eb	0.33113036
180	0xbe109e46	-0.14122877
181	0xbec9d148	-0.3941748
182	0xc028f138	-2.6397228
183	0xbfaef077	-1.3667134
184	0xbdf68947	-0.12037902
185	0xbe39295d	-0.18082185
186	0xbe6bd1b1	-0.2302921
187	0xc0138d37	-2.305494
188	0xbf643cc3	-0.89155215
189	0xbd9443ae	-0.072394714
190	0xbe50d99c	-0.20395511
191	0x3f2e0456	0.67975366
192	0x406e3548	3.722002
193	0x3fda1bc2	1.7039721
194	0x3f4293b1	0.7600661
195	0xbed20577	-0.41019794
196	0xbed23e09	-0.41062954
197	0xc03f37f9	-2.9877913
198	0xbf3a8fe4	-0.7287581
199	0xbe2f894b	-0.17142217
200	0x3dccf621	0.10007883
201	0x3eb549ac	0.3540777
202	0x3f9c7063	1.2221798
203	0x3fa7572d	1.3073479
204	0x3e312109	0.17297758
205	0xbf0980b7	-0.5371203
206	0xbf34907a	-0.70532954
207	0xc04ea097	-3.2285516
208	0xbf7f3ff1	-0.9970694
209	0xbf046158	-0.51711035
210	0x3f4aa87f	0.79163355
211	0x3e0402ba	0.12891665
212	0xc03e5728	-2.9740696
213	0xbfd2b474	-1.646132
214	0x3dd911ff	0.105991356
215	0x3e71c238	0.23609245
216	0x3eb81dc5	0.35960212
217	0x4097f7bc	4.748991
218	0x3f942c5b	1.1576036
219	0x3e1f5cdf	0.15562771
220	0xbe2849a0	-0.16434336
221	0x3f90432e	1.1270502
222	0x3ec625fa	0.3870085
223	0x3e6fb3a0	0.23408365
224	0x3ec88065	0.39160457
225	0xbe46e5b3	-0.19423561
226	0xbe89ecf5	-0.26938596
227	0xbf23c855	-0.6397756
228	0xbef9f510	-0.4881978
229	0x3de2914f	0.11062872
230	0x3e8d1f7f	0.27563092
231	0x3f722067	0.9458069
232	0x4058120c	3.3761015
233	0x3fd09359	1.6294967
234	0x3f3f9c18	0.74847555
235	0x3fa81808	1.3132334
236	0xbe97906e	-0.2960238
237	0xc03d4b5c	-2.9577246
238	0xc00405b2	-2.0628476
239	0xbe78327b	-0.24238007
240	0x3e8d4b2e	0.2759642
241	0xbe8813b5	-0.26577535
242	0xc073c79c	-3.8090582
243	0xc02519a3	-2.5796897
244	0xbe87105f	-0.26379678
245	0xbf9726f1	-1.1808759
246	0xbfa747e1	-1.3068811
247	0xc03ef3d1	-2.9836314
248	0xbf9b1953	-1.2117103
249	0xbf13e8f7	-0.5777735
250	0x3e887f11	0.26659444
251	0xbe4d8393	-0.20069723
252	0xbfe8a808	-1.8176279
253	0xbf5eeda6	-0.8708137
254	0xbdada04b	-0.08477839
255	0x3e2bd297	0.16779552

fc1.bias f4 [128]
0	0x3ef68434	0.48147738
1	0xc008e7b6	-2.1391425
2	0x405be686	3.435945
3	0x4033553f	2.802078
4	0xc00adfb5	-2.169904
5	0x3f27e0a0	0.65577126
6	0xbe587bad	-0.21140929
7	0x3fcffff5	1.6249987
8	0x4023b134	2.5576906
9	0xbfc6073d	-1.5470959
10	0x3fbd809c	1.4804873
11	0xc014b2e6	-2.323419
12	0x4024fd44	2.577958
13	0xbe372308	-0.17884457
14	0x3fefcda6	1.8734634
15	0x3fdda2af	1.7315272
16	0x3ffbf248	1.9683313
17	0x3fcd4275	1.6035906
18	0xbfac86fe	-1.3478696
19	0x404c0ee5	3.188409
20	0x3d6ecb5e	0.058299415
21	0x3e3e2d4b	0.18571965
22	0xbfe2f80c	-1.7731948
23	0x3fab81cf	1.339899
24	0x40093812	2.1440473
25	0xbf3eac03	-0.7448122
26	0xbda7545b	-0.081703864
27	0x3f96f76f	1.1794261
28	0x3fc54a9b	1.5413393
29	0xbfefe296	-1.8741024
30	0x3f512af7	0.81706184
31	0x3fda1a6f	1.7039317
32	0x40493935	3.1441166
33	0x3ffd4632	1.9787047
34	0x3f4a4687	0.79013866
35	0xbdde07ff	-0.10841369
36	0x402781de	2.6173015
37	0x40104f38	2.2548351
38	0xbe1f71da	-0.15570775
39	0x40121cff	2.2830198
40	0x3f375fd6	0.7163061
41	0x3d8c8070	0.06860435
42	0x3fbfae2d	1.4975029
43	0xbfd965fa	-1.6984246
44	0x3f8e3493	1.1109794
45	0x40518cc3	3.2742164
46	0x3fe5d517	1.7955655
47	0xbe2c1915	-0.16806443
48	0xbf4681c8	-0.7754178
49	0x3ed6e0d7	0.41968414
50	0x3fbd75be	1.4801557
51	0x40520daf	3.2820852
52	0x4008694d	2.131427
53	0x401db68c	2.4642668
54	0x3fed785c	1.8552356
55	0x3f8e82c6	1.1133659
56	0x3ff1dcf5	1.8895556
57	0x3f33a82b	0.7017848
58	0xbef51d10	-0.47873735
59	0x4016fd10	2.3591957
60	0x4049a932	3.1509519
61	0x3fc885c4	1.5665822
62	0x3fa0b4a0	1.2555122
63	0x3f982106	1.1885078
64	0x3f8e5008	1.1118174
65	0xbed36707	-0.4128954
66	0x401b6715	2.4281666
67	0x3f24031e	0.64067256
68	0x3f90b498	1.1305113
69	0x401c475d	2.4418557
70	0x3f8a2661	1.0792962
71	0x3fc415c4	1.5319142
72	0x404e3293	3.2218368
73	0x3f0b2652	0.5435535
74	0x40401e98	3.0018673
75	0x3f525ae7	0.82169956
76	0x3da4df91	0.080504544
77	0xbf563808	-0.83679247
78	0x3ec2c8ed	0.3804392
79	0x400130e1	2.0186083
80	0x40100f14	2.2509203
81	0x403dc8ac	2.965373
82	0x40687d7c	3.632659
83	0x3fdc1ca5	1.7196242
84	0x3f5b1d5e	0.85591686
85	0x3fd1f6d6	1.6403453
86	0x3f81add3	1.0131172
87	0x3f8553dc	1.0416217
88	0x3f2185b7	0.6309466
89	0xc013b895	-2.308141
90	0x3ff20e62	1.8910639
91	0xc039ebdc	-2.9050207
92	0x3f05ace7	0.52216953
93	0x40348de8	2.8211613
94	0x4022736f	2.5382955
95	0x40298a26	2.649057
96	0x3f703ca9	0.9384256
97	0x3f088356	0.533254
98	0x3fb9a1f0	1.4502544
99	0x400c6bc4	2.1940775
100	0x4054c1b5	3.324323
101	0x3fe670c8	1.8003168
102	0x3f183bb2	0.5946609
103	0x3fbd9be8	1.4813204
104	0x3fd82c9c	1.6888614
105	0x4018624f	2.3810003
106	0x405da5c7	3.4632432
107	0x3e10177c	0.14071459
108	0x3f875f9f	1.0576056
109	0x3f5159d3	0.81777686
110	0xbe2abcb6	-0.1667355
111	0x3ffaec03	1.9603275
112	0xbf9929d0	-1.1965885
113	0x3f386d78	0.72042036
114	0x406249fa	3.5357652
115	0x3dfa8bfd	0.12233732
116	0xbf6f5b38	-0.93498564
117	0x400b0463	2.1721427
118	0x3ed4f1b0	0.41590643
119	0x3fd30f36	1.6489017
120	0xbd8d0827	-0.068863206
121	0x4008e1d7	2.1387842
122	0x402d1050	2.7041206
123	0x3fe04513	1.752108
124	0x3e05b491	0.13057162
125	0x4001fcb0	2.0310478
126	0xbef4054a	-0.47660285
127	0xbec77028	-0.38952756

fc2.weight f4 [128, 128]
0	0xc000a5e1	-2.0101244
1	0xbec27f27	-0.37987635
2	0x3d2d4a87	0.042307403
3	0x3f004cdf	0.50117296
4	0xbecc8f64	-0.39953148
5	0xbe3a6efe	-0.18206403
6	0xbe1a62de	-0.15076777
7	0xbe43168b	-0.19051568
8	0x3f0c544f	0.54816145
9	0xc004bd3e	-2.0740504
10	0xc005dd27	-2.091623
11	0x3ec63886	0.38715
12	0x3ece0fbe	0.40246385
13	0x3e56f7c5	0.20992954
14	0xba405e13	-0.0007338237
15	0xbdfc8cc0	-0.123315334
16	0xbdb2e8e5	-0.08735827
17	0x3d8916b1	0.06693781
18	0xbfc48f34	-1.5356202
19	0xbdaf61f1	-0.08563603
20	0xbff5feb0	-1.921835
21	0x3e8f5b46	0.27999324
22	0x3e59fa82	0.21286967
23	0x3dd4c2f8	0.1038875
24	0x3d850a8e	0.06496154
25	0x3e27cbd7	0.16386352
26	0x3f4f97ed	0.81091195
27	0x3cc89a8a	0.024487752
28	0x3dd8a888	0.1057902
29	0xbfd9f971	-1.7029248
30	0x3c49904b	0.0123024685
31	0x3d63b12e	0.055588894
32	0x3ecd4fe2	0.40100008
33	0x3d167228	0.03672996
34	0xbeffd943	-0.49970445
35	0xbde2f1ea	-0.11081298
36	0xb98fea18	-0.000274495
37	0x3ed18218	0.40919566
38	0xc047428e	-3.1134372
39	0x3ec9f3e6	0.39443892
40	0x3da4a11d	0.080385424
41	0xbfa8d556	-1.3190105
42	0xc0056a30	-2.0846062
43	0xbe2e9068	-0.17047274
44	0xbec8af2a	-0.3919614
45	0xbeb957ec	-0.36199892
46	0xbed33157	-0.4124858
47	0x3dab5127	0.08365088
48	0x3eeddbd9	0.46456793
49	0xbe875a09	-0.2643588
50	0x3d7c79dd	0.061639655
51	0x3f8d7a23	1.1052898
52	0x3e9f6619	0.31132582
53	0xbd5f1db9	-0.054471705
54	0xbf0909fd	-0.53530866
55	0xbe67e8e8	-0.2264744
56	0x3c974057	0.018463297
57	0x3dea60c5	0.114442386
58	0x3ef3d630	0.4762435
59	0x3d961efd	0.07330129
60	0xbe4d753a	-0.2006425
61	0x3e951ac9	0.29121998
62	0xbef2b5eb	-0.47404417
63	0x3dc34f44	0.09536603
64	0x3f2d8ff7	0.677978
65	0x3e9c2814	0.30499327
66	0x3dcadb3f	0.09905099
67	0x3e85e0f2	0.26148182
68	0x3cdccc86	0.026952993
69	0x3e7aba28	0.24485075
70	0xbec185ff	-0.37797543
71	0xbebb67ee	-0.3660273
72	0x3ecff5f2	0.4061733
73	0xc00a8a98	-2.164709
74	0xbeaff517	-0.34366676
75	0xbf1c78dd	-0.6112192
76	0xbfae4a40	-1.3616409
77	0xc03962e5	-2.896661
78	0xbf6dcf7c	-0.9289472
79	0xbec29ad1	-0.3800874
80	0xbccacd59	-0.02475612
81	0xbf646f40	-0.89232254
82	0x3e0eac95	0.13933022
83	0xbb4a5789	-0.003087493
84	0xbf02696b	-0.50942105
85	0x3e202382	0.15638545
86	0xbe90d87d	-0.28290167
87	0x3eb4da47	0.35322782
88	0xbf5ae83a	-0.855106
89	0xbe051c17	-0.12998997
90	0xbf8d1f0b	-1.1025099
91	0xbf978ea4	-1.1840405
92	0x3e8bb8b2	0.2728935
93	0x3e9d1b81	0.30685046
94	0xbe4860e4	-0.19568211
95	0x3f0f77ca	0.5604216
96	0xbedd57bf	-0.43231007
97	0x3e93c063	0.28857717
98	0x3dd6d1c1	0.10489226
99	0xbea182a2	-0.31544977
100	0x3f27266a	0.6529299
101	0xbdd916cf	-0.106000535
102	0xbdc7a29c	-0.09747812
103	0x3f679bea	0.9047228
104	0xbeada902	-0.33918005
105	0x3f36aa60	0.7135372
106	0x3f05c2d0	0.52250385
107	0x3e06400e	0.13110372
108	0xbef71c54	-0.482638
109	0xbe8b8fc1	-0.27258113
110	0x3f9434f6	1.1578662
111	0xbf1c3cd1	-0.610303
112	0x3e2215af	0.15828584
113	0xbd3919ca	-0.04519061
114	0xbe44a61d	-0.19203992
115	0x3e3b4578	0.18288219
116	0xbf7d9ac7	-0.99064296
117	0x3f0e7969	0.5565401
118	0xbf905cde	-1.1278341
119	0x3ebd1df1	0.36936906
120	0x3e8f8619	0.28031996
121	0xbece4597	-0.40287468
122	0x3da4dd8b	0.080500685
123	0xbf2348b2	-0.637828
124	0xbfeec3a8	-1.865346
125	0x3e60c387	0.21949588
126	0x3d0a336f	0.033740457
127	0x3ed5c395	0.4175078
128	0xbfcffdcc	-1.6249328
129	0xbfc72aa2	-1.5559886
130	0xbe114c91	-0.14189364
131	0x3e72ee65	0.23723753
132	0xbf4c1375	-0.7971719
133	0xbddd763d	-0.10813568
134	0xbf41b5c5	-0.75667983
135	0x3cbaa505	0.022783766
136	0x3f64b873	0.8934395
137	0xbf98eb41	-1.1946794
138	0xc005077d	-2.078582
139	0x3f7c2154	0.98488355
140	0x3eeee192	0.46656471
141	0x3e3db04d	0.18524285
142	0x3e6b85fd	0.23000331
143	0x3d53d8a1	0.051720265
144	0x3ec54fff	0.38537595
145	0x3ee852bb	0.45375618
146	0xbfc4530c	-1.5337844
147	0x3e6cb9e8	0.23117793
148	0xbfdf1e3d	-1.7431103
149	0x3ebe2774	0.37139475
150	0x3eba6651	0.36406186
151	0xbc1743c0	-0.009232461
152	0x3e15a887	0.1461507
153	0xbe66295c	-0.22476715
154	0x400308c1	2.0474093
155	0x3d760a34	0.060068324
156	0x3ef1f79d	0.47259226
157	0xbf8c1098	-1.0942564
158	0x3e82bf35	0.25536504
159	0x3e90747e	0.28213876
160	0x3eeeea85	0.466633
161	0x3f09c861	0.5382138
162	0xbf911027	-1.1333054
163	0xbf5b6ed2	-0.85715973
164	0x3e16f75b	0.14742796
165	0x3ef3db12	0.47628075
166	0xc05d8d8e	-3.4617648
167	0x3e3b0cb8	0.1826657
168	0xbe842297	-0.2580764
169	0xbf70bebc	-0.9404104
170	0xbfe2f7ce	-1.7731874
171	0x3dbf6bf8	0.09346765
172	0xbedbc5db	-0.4292439
173	0x3d67ba57	0.056574192
174	0xbffda953	-1.9817299
175	0x3e0d76ce	0.13814852
176	0x3ed10273	0.4082218
177	0x3d59efe8	0.053207308
178	0x3e2946bc	0.1653089
179	0x3f9583cd	1.1680847
180	0x3ed9b582	0.42521292
181	0x3f1563fc	0.5835569
182	0xbed2ea81	-0.41194537
183	0xbf5e11d9	-0.86745983
184	0x3e956d5f	0.29185006
185	0xbe7fa67c	-0.24965852
186	0x3f48fbbf	0.78509134
187	0x3e034d03	0.12822346
188	0x3e028ccf	0.12749027
189	0x3f1c316f	0.6101293
190	0xbf7612fa	-0.96122706
191	0x3e96c24f	0.2944512
192	0x3faae3fb	1.3350824
193	0x3f0a9244	0.54129434
194	0x3ead1f5c	0.33812988
195	0x3ea8b62c	0.32951486
196	0x3da68b59	0.08132047
197	0x3eb5bc8b	0.3549541
198	0xbed3a79a	-0.41338807
199	0xbd923c2e	-0.071403846
200	0x3ef1c07e	0.47217172
201	0xbfeba9f0	-1.8411236
202	0xbe063da1	-0.13109447
203	0xbcd11817	-0.025524182
204	0xbfecb356	-1.8492229
205	0xbfc4a5a4	-1.536305
206	0xc0443f92	-3.06638
207	0x3f1eeb44	0.62077737
208	0xbdbc82b4	-0.09204617
209	0xbedd79de	-0.4325704
210	0x3f43d530	0.76497173
211	0x3e842d69	0.25815895
212	0x3d8dd41a	0.06925221
213	0x3eb553cb	0.3541549
214	0xbed3e95f	-0.41388986
215	0x3f2d3eab	0.6767375
216	0xbfe0197c	-1.7507777
217	0xbf71523f	-0.9426612
218	0xbf50f1f2	-0.8161918
219	0xbf88af6c	-1.0678535
220	0x3f043cc8	0.51655245
221	0x3f6f2649	0.93417794
222	0xbe4b57a5	-0.19857652
223	0x3f38c5da	0.721769
224	0xbda0d78f	-0.078536145
225	0xbd66201b	-0.056182962
226	0x3f35b43b	0.70978135
227	0xbe8a6ec0	-0.2703762
228	0x3f701366	0.937796
229	0x3f116164	0.5678923
230	0x3c481471	0.012211905
231	0xbcc513d5	-0.024057308
232	0xbe9e53dd	-0.30923358
233	0x3f4b98d8	0.79530096
234	0x3f4a01cd	0.78909
235	0x3ede81d3	0.43458423
236	0xbf08d617	-0.53451675
237	0xc00ba6b3	-2.1820495
238	0x3ffe7f1b	1.988254
239	0xbf0e8ec2	-0.5568658
240	0xbd2bf32e	-0.04197996
241	0x3c3755bc	0.011189874
242	0xbe6f28f4	-0.23355466
243	0x3e169a07	0.14707194
244	0xbf882082	-1.0634921
245	0x3e1ef971	0.15524842
246	0xbefa105e	-0.48840612
247	0xbea7dea7	-0.32787058
248	0x3e91512b	0.2838224
249	0xbd7a05d3	-0.06104071
250	0x3f0eb441	0.55743796
251	0xbdce85ba	-0.100841
252	0xbfebbe52	-1.8417456
253	0x3ed75501	0.4205704
254	0xbee15680	-0.44011307
255	0x3f026746	0.5093883

fc2.bias f4 [128]
0	0x3ecb4f02	0.39708716
1	0x3d8e1f4c	0.06939563
2	0xbf0dfa31	-0.55459887
3	0x3e673abe	0.22581002
4	0xbf0b5a82	-0.5443498
5	0xbfafe8cf	-1.3742923
6	0xbe0119db	-0.1260752
7	0xbde1342f	-0.10996281
8	0x3e8ec48a	0.27884322
9	0x3b75a253	0.0037480786
10	0x3ef8c269	0.48585823
11	0xbda93341	-0.08261729
12	0x3f28387d	0.65711194
13	0x3ed159fb	0.40888962
14	0x3f48b740	0.7840462
15	0x3e8893e0	0.2667532
16	0xbea3c4ea	-0.3198617
17	0x3e497f21	0.19677402
18	0x3e248be1	0.16068985
19	0xbf53b177	-0.82692665
20	0x3eaaf68a	0.3339122
21	0x3e8494cb	0.2589477
22	0x3f21129f	0.6291904
23	0x3f1f9c4e	0.6234788
24	0xbe194250	-0.14966702
25	0x3e489f91	0.1959212
26	0x3fe4f528	1.7887316
27	0xbee1f900	-0.44135284
28	0x3d744e1b	0.0596448
29	0x3e8cf790	0.27532625
30	0x3f0409bf	0.5157737
31	0x3e39c189	0.18140234
32	0xbf573670	-0.8406744
33	0x3e77e4ab	0.24208324
34	0x3f08267f	0.5318374
35	0xbed3b688	-0.41350198
36	0xbfccbfd3	-1.599604
37	0xbfddab90	-1.7317982
38	0x3db0ff57	0.08642452
39	0x3f3a1f91	0.72704417
40	0xbf6cd8a1	-0.9251805
41	0x3dd759c8	0.10515171
42	0x3ee502a1	0.44728568
43	0xbfafed79	-1.3744346
44	0xbe5a4341	-0.21314718
45	0xbdc12189	-0.094302244
46	0x3e23fcab	0.16014354
47	0x3f40a7f8	0.752563
48	0x3dda5f70	0.106627345
49	0x3f60fed8	0.8788886
50	0xbeb71533	-0.3575836
51	0x3f1c3ff0	0.6103506
52	0x3e9f4bfe	0.31112665
53	0x3ea14040	0.3149433
54	0x3abb3b44	0.001428463
55	0xbe46e1e8	-0.19422114
56	0x3ba756be	0.005106776
57	0x3ebddfee	0.37084907
58	0x3ef8cda0	0.4859438
59	0x3e65c63e	0.22438905
60	0x3f02b81e	0.5106219
61	0x3de30f0c	0.11086854
62	0x3eacd7dc	0.33758438
63	0x3f6abec4	0.91697335
64	0x3d2bdf68	0.041961104
65	0x3e6b1528	0.22957289
66	0x3e9df270	0.30849028
67	0x3ea4873b	0.32134423
68	0x3eb34724	0.35015213
69	0x400e3b38	2.2223644
70	0xc00948c9	-2.1450675
71	0x3e684d6e	0.22685787
72	0x3eb6de47	0.3571646
73	0x3fb5a53a	1.4191048
74	0x3dbedbdf	0.09319281
75	0x3e31c369	0.173597
76	0x3edecd67	0.43516085
77	0xc00d150d	-2.2044098
78	0xbc8bca5d	-0.017064268
79	0x3dbb6ee9	0.09152014
80	0xbf69cf27	-0.91331714
81	0x3e665e5c	0.22496933
82	0x3da64725	0.081190385
83	0xbea21c97	-0.31662437
84	0x3fe8be77	1.8183125
85	0x3eceddb3	0.40403518
86	0xbd85c5c9	-0.06531865
87	0x3ea40f6e	0.32043022
88	0x3ea656fb	0.32488236
89	0x3ef07bb1	0.4696937
90	0x3f486d85	0.78292114
91	0x3dd0ea49	0.10200936
92	0xbdf3cfbb	-0.11904856
93	0x3f439271	0.76395327
94	0xbed0445d	-0.40677157
95	0xbebed3c8	-0.3727095
96	0xbf3c440b	-0.73541325
97	0x3e0458ca	0.12924495
98	0x3d90d447	0.07071739
99	0xbeaa948d	-0.3331646
100	0xbfb80ce5	-1.4378935
101	0x3f0dbe95	0.5536893
102	0x3ea2525a	0.31703454
103	0x3e8f0ac6	0.27937907
104	0x3fe39d53	1.7782387
105	0xbf54e469	-0.83161026
106	0x3d3aa977	0.04557177
107	0x3c6614ea	0.014043072
108	0x3e6bfd0c	0.23045748
109	0x3ea2c61a	0.31791764
110	0x3e66dbe0	0.22544813
111	0x3fbd92df	1.4810447
112	0x3d79067f	0.06079721
113	0xbe8c0fea	-0.2735589
114	0x3ec98fab	0.39367422
115	0x3e82e1bc	0.25562847
116	0x3e00c25e	0.12574145
117	0x3ef3b45b	0.47598538
118	0xc00ca365	-2.1974728
119	0x3e152a97	0.14567028
120	0x3fe651f2	1.7993758
121	0x3fa35f67	1.276349
122	0x3f805782	1.0026705
123	0x3d31915e	0.043351524
124	0x3f376a33	0.7164642
125	0x3e195032	0.14971998
126	0x3f887786	1.0661476
127	0x3e270fe8	0.16314662

fc3.weight f4 [2, 128]
0	0x3f37a626	0.717379
1	0x3f3cc012	0.73730576
2	0xbfe1d15e	-1.7642019
3	0x3ee87c7b	0.4540747
4	0x3e96c8ca	0.29450065
5	0x3fab9542	1.3404925
6	0x3f4cf328	0.80058527
7	0x3efcbe4b	0.49363932
8	0xbfaf53d0	-1.3697453
9	0xbd82f066	-0.063935086
10	0x3e76a6c7	0.24087058
11	0xbced22bb	-0.028947225
12	0x3f34b31c	0.705858
13	0x3f05dc2d	0.52289087
14	0xbfd79db7	-1.6845006
15	0x3ecd9768	0.40154576
16	0x3f91e650	1.1398411
17	0xc01c3131	-2.4405024
18	0x3f25ebc8	0.648129
19	0xbfd81418	-1.6881132
20	0x3eb87be6	0.36032027
21	0x3ed41335	0.41420904
22	0x3f01fd4e	0.5077714
23	0x3f519639	0.81869847
24	0x3f923870	1.1423473
25	0x3f817ac7	1.0115594
26	0xbfae768b	-1.3629926
27	0x3fdf86df	1.7463034
28	0xbd7b92ee	-0.06141942
29	0x3ebcb8ef	0.36859843
30	0xbd4eca5e	-0.05048596
31	0x3ed164df	0.4089727
32	0xbeb82099	-0.3596237
33	0x3ebd9082	0.37024313
34	0x3edaf307	0.4276354
35	0xbfcfed99	-1.6244384
36	0xbfc78722	-1.5588114
37	0xbfff8679	-1.9962913
38	0xbfcd33de	-1.6031454
39	0xbf940515	-1.1564051
40	0xbfcb04ee	-1.586088
41	0xc022d374	-2.544156
42	0x3f178b99	0.59197384
43	0xc02085f9	-2.508177
44	0xbfe7467c	-1.8068385
45	0xbd7be384	-0.061496273
46	0x3eae3f2b	0.34032568
47	0x3f320919	0.6954513
48	0x3f29dc5f	0.66351885
49	0xbfa8985f	-1.31715
50	0x3f878e85	1.0590369
51	0x3ee5bd42	0.44870955
52	0x4065da9e	3.5914683
53	0x3f33f3d0	0.70293903
54	0xbbfe9486	-0.00776917
55	0xbfa81c7a	-1.313369
56	0xb9a7fdb4	-0.00032041746
57	0x3eba8689	0.36430767
58	0x3f4ba7a9	0.79552704
59	0xbffc08dc	-1.9690204
60	0x3f08bbed	0.5341175
61	0xc031cd20	-2.7781448
62	0x3edbf0c1	0.42957118
63	0xbfc4cdb4	-1.5375276
64	0xbf9dc539	-1.2325813
65	0x3ecce5e0	0.4001913
66	0x3ee7d9c2	0.45283324
67	0x3f00c830	0.5030546
68	0x3ed0a78b	0.40752825
69	0xbdfb39bb	-0.122668706
70	0xc0188ad4	-2.3834734
71	0x3f4fbcf6	0.81147707
72	0x3f521f2f	0.8207883
73	0xbfbd651f	-1.4796485
74	0x3f6f2500	0.9341583
75	0x404a02c2	3.1564183
76	0x3ed8a0b2	0.423101
77	0xc00da348	-2.213091
78	0x3f0a61c2	0.54055417
79	0x3ec25b9e	0.37960523
80	0xbfe2c2c8	-1.7715693
81	0x3ee3c5b8	0.44486785
82	0x3f5bafc5	0.8581508
83	0x404b6a22	3.1783528
84	0xbff2d644	-1.8971639
85	0x3eecec11	0.46273854
86	0xbd33fbfd	-0.043941487
87	0xbfd8358d	-1.6891342
88	0xbf70c9ae	-0.9405774
89	0x3f07a96b	0.52992886
90	0x3f846362	1.0342829
91	0xc0387d37	-2.8826425
92	0x3f353694	0.70786405
93	0xbff5d2b0	-1.9204922
94	0xbfd9d5dd	-1.7018391
95	0xbfeea81e	-1.8645055
96	0xbfc6518b	-1.5493635
97	0x3e9daaee	0.30794472
98	0xbfc0eb72	-1.5071852
99	0xbfeb569b	-1.8385805
100	0xbf8498fc	-1.0359187
101	0xbfcaf44b	-1.5855802
102	0x3ed5f147	0.41785643
103	0x3ecded20	0.40219975
104	0xbfabc9b2	-1.3420928
105	0x3f056d81	0.52120215
106	0x3e16c920	0.1472516
107	0xbd975f45	-0.07391218
108	0x3eec8995	0.46198717
109	0x3eb62c39	0.35580614
110	0x3eb5a80f	0.3547978
111	0x3f934617	1.1505765
112	0xbbfcfd8f	-0.007720656
113	0xbfe987ec	-1.8244605
114	0x3ef58694	0.47954237
115	0x3fff2fa2	1.9936411
116	0x3edbbe58	0.42918658
117	0x3eebf8d9	0.46088293
118	0x3fd403a7	1.6563615
119	0x3ebd1c73	0.36935768
120	0xbfa87f5b	-1.3163866
121	0xbfb5c7d4	-1.4201608
122	0x3ff0434f	1.8770541
123	0x3ee29ad8	0.4425876
124	0x3fcfd86a	1.6237919
125	0x3ee75a5d	0.4518613
126	0x3fba2f56	1.4545696
127	0x3eddb7e3	0.43304357
128	0x3f1d1862	0.6136533
129	0x3f5d6934	0.8648865
130	0xbff27085	-1.8940588
131	0x3ed690a2	0.4190722
132	0x3e5a1566	0.21297225
133	0x3e69fdd3	0.22850733
134	0x3f2a4384	0.6650927
135	0x3ef1bf89	0.47216442
136	0xbfc357ec	-1.5261207
137	0x3db47cc9	0.088128634
138	0x3f97e154	1.186564
139	0xbd2f23dc	-0.042758808
140	0x3f3377c9	0.7010465
141	0x3ef1632d	0.47145978
142	0xbfa1bb46	-1.2635276
143	0x3ecca234	0.399675
144	0x3f21952b	0.6311824
145	0xc00c22a1	-2.1896136
146	0x3f211c3e	0.6293372
147	0xbff9b9d6	-1.9509838
148	0x3ed3e5a4	0.4138614
149	0x3ede1824	0.43377793
150	0x3f47cb6d	0.7804478
151	0x3eee4078	0.4653356
152	0x3f827d5d	1.0194508
153	0x3fa84984	1.3147435
154	0xbfc49020	-1.5356483
155	0x3fb8f5e5	1.4450041
156	0xbd6b2015	-0.057403643
157	0x3f00c2cd	0.5029724
158	0x40409f4c	3.0097227
159	0x3ee5b9a9	0.4486821
160	0xbff0b295	-1.8804499
161	0x3ece903b	0.40344414
162	0x3f189d70	0.5961523
163	0xbfd1d71d	-1.6393772
164	0xc0113598	-2.268896
165	0xbf97c7ba	-1.1857827
166	0xbf645b6d	-0.89202005
167	0xc0009c73	-2.009549
168	0xbfa5fae2	-1.2967188
169	0xc0106dd2	-2.256703
170	0x3f2e2db4	0.6803849
171	0xbf5c2e19	-0.8600784
172	0xbfed6e5f	-1.8549308
173	0xbbd379c6	-0.0064537255
174	0x3ed62d84	0.418316
175	0x3f080867	0.5313782
176	0x3f37280c	0.7154548
177	0xbffdc223	-1.9824871
178	0x3fa27b8a	1.2693951
179	0x3f037577	0.5135111
180	0x3e01ee5d	0.12688585
181	0x3f27b2c8	0.65507174
182	0xbc99a9de	-0.018757757
183	0xbfa90dc2	-1.3207324
184	0x3b5a1229	0.0033274984
185	0x3ecedb3e	0.40401644
186	0x3f6f0ee1	0.9338208
187	0xbff5a5c4	-1.9191213
188	0x3ee8b33a	0.4544924
189	0xc030d8d5	-2.7632344
190	0x3ebcf28f	0.36903808
191	0xbfb57bd4	-1.4178414
192	0xbfd8eab2	-1.6946623
193	0x3ec24596	0.37943715
194	0x3ed44163	0.41456136
195	0x3efe6b92	0.49691445
196	0x3f18e8ae	0.5973004
197	0xbfb6f395	-1.4293085
198	0xbf9690e2	-1.1762965
199	0x3f1e334c	0.6179702
200	0x3f46c21a	0.77639925
201	0xc00eead9	-2.233084
202	0xbea6ccdf	-0.3257818
203	0x3fca7da5	1.5819594
204	0x3ed42d66	0.41440886
205	0xbeb3363d	-0.35002318
206	0x3f01c4e7	0.50691074
207	0x3ef2fd42	0.47458845
208	0xbfd9068a	-1.695512
209	0x3efc84be	0.49320024
210	0x3f024b9c	0.5089662
211	0x4037db40	2.872757
212	0xbfade8f4	-1.3586717
213	0x3ef7ed1a	0.48423082
214	0x3c509954	0.012731869
215	0xbfdcd78b	-1.7253278
216	0x3f4dc2db	0.8037545
217	0x3ee27daf	0.44236514
218	0x3f8ce803	1.1008304
219	0xc04e6727	-3.225046
220	0x3f58e948	0.8473096
221	0xbfe6d8ea	-1.8034947
222	0xc003d152	-2.059651
223	0xc0020871	-2.0317652
224	0xbf8894d0	-1.0670414
225	0x3ef774d5	0.48331323
226	0xbfd26dbc	-1.6439738
227	0xc008a65f	-2.1351545
228	0xbfe98502	-1.8243716
229	0xbfda60ee	-1.706083
230	0x3edcd4fd	0.43131247
231	0x3edba272	0.42897373
232	0xbfc1af4a	-1.5131619
233	0x3f93647e	1.1515043
234	0x3f0a7a8e	0.54093254
235	0xbcc498c0	-0.023998618
236	0x3ed4f349	0.41591862
237	0x3f0ebaa6	0.5575355
238	0x3efb4b7c	0.49081028
239	0x40509e98	3.2596798
240	0xbd98a8ba	-0.07454057
241	0xbfe2347c	-1.7672267
242	0x3f0cb1f7	0.5495905
243	0x3fd5da21	1.6707193
244	0x3efaed42	0.49009138
245	0x3f0bbc92	0.5458461
246	0x3f99df8b	1.2021345
247	0x3ec361ae	0.3816046
248	0xbfb4cf82	-1.4125826
249	0xbfaf4311	-1.3692342
250	0x3f6262b9	0.8843189
251	0x3ee1f971	0.4413562
252	0x40120454	2.2815142
253	0x3ed5152c	0.41617715
254	0x3f1566e9	0.58360153
255	0x3eca7c0a	0.3954776

fc3.bias f4 [2]
0	0xbcb4a560	-0.022051513
1	0xbeb11749	-0.34588078
