assignments/cart_pole_optimal_control/cart_pole_optimal_control/dqn/dqn_cartpole_earthquake.pth (torch, 73000 bytes, 6 tensors)

fc1.weight f4 [128, 5]
00000000: c9ac cc3e 3cb1 013f 9315 1a40 b806 253f
00000010: 0f2a bf3e 6149 c43f 8664 583f 575f e23f
00000020: 9bcc f33e 038e 083e ce6a 193f 2ca1 c13e
00000030: cc22 643f 5828 883e c88a 503e fc12 183f
00000040: 4e13 c33e b94c 8a3f 9db3 c03e bd60 313e
00000050: 2213 f43e b499 293f b0fb 183f 127e e13e
00000060: cd38 5c3e 7bf2 93be 4456 7cbe 992b 7ebd
00000070: b93e 23be 585b 13bf dbe2 c63f 96fd a73e
00000080: c420 ac3e fca9 35be 826e ce3d c39e 56be
00000090: 99ae ff3d 3de4 8f3f bbd4 b13e f16d 173f
000000a0: 0aa8 8abf 16cd e3bd 9225 2c40 e121 1d3f
000000b0: da3d 5e3e 8227 043e 1809 da3e 65e6 893f
000000c0: 4ed8 ab3e 85b9 463f cc82 3bbe be31 e6be
000000d0: aa3b 1bbf b662 bebe 8d8c 18bf 693b 5c3e
000000e0: bad0 223f 96dd d73f aa67 083f 5f8f 5d3e
000000f0: c382 a53e 1ef9 203e dc8a 543f 1229 c53d
00000100: eadd a43d 48ee 7c3f 32dc f13e d380 2bbf
00000110: 5b11 90be fa43 8e3e 6aee c13f 872d 653f
00000120: b2e3 68bf eaea dfbd 2b7c 123f c9e4 e6be
00000130: dab9 f0bd 1f18 183f 6542 633f 3f27 7dbd
00000140: bf10 27bf d0fb afbe b87a 86bf bae4 05bf
00000150: 0afb 1ebe 4fe2 7ebd 48d5 153f 798f 84bf
00000160: f6fd cd3e 161c e63e 7cec 2f3f cc0c a53e
00000170: b3c5 5e40 0186 d73e 2d7a 9a3d b10d 0fbe
00000180: eeba 5e3f 03df 0ec0 d9e1 7e3e d251 0d3e
00000190: 708e d33e a89b 133e 4132 22c0 d107 94be
000001a0: ab37 6e3d dd6c fc3b c513 a9bd f08d 20c0
000001b0: 2ee3 22bf f08e 9abe d692 1c3f 01da 533f
000001c0: 88d9 d43e c685 d13e 0354 063f 9c0d ccbe
000001d0: 966f 89be a63a b5bf d453 43be 49c4 58be
000001e0: f2d2 663e d7b8 4dbd 3915 fcbf 5130 66bf
000001f0: fe3f ee3a fb6f 19bf 272f 65bf 621b 6f3e
00000200: fe85 08bf d3a8 f5be 7461 d6be 2364 5bbe
00000210: 144b bcbd 886c 3e3e 59eb dcbd d8e0 28bf
00000220: f315 86be b879 12c0 32ef c13d 6bc9 2abe
00000230: 4fa4 3ebe 6738 a7be 4fcf 1b3e 8492 c8be
00000240: b7b2 adbd 0eee 433f 150f 893f a82e d53f
00000250: 7203 553f c134 a63e 37e7 1abf a43e 89bf
00000260: b461 c3bf 8386 55bf 638e acbe 4244 8ebf
00000270: 564d 69be 6220 8cbf 839d 6f3e 11ac 39be
00000280: dc0a 053f 16a7 883e b28b 8f3e deb3 d3be
00000290: e332 873e 3ece 41be 6b5b 99be cb75 b13f
000002a0: 83e1 6cbd 63cc 51be ca8f c63e 541a 2d3f
000002b0: 937e 223e ec68 c43e f8c0 d93d 5416 a63e
000002c0: fff3 4e3e 376d f73f 383a c23e dfd0 12bf
000002d0: a9d4 1b3e 3757 a33e 3c73 2f3d e259 49bd
000002e0: 3488 fd3e 1acd c13e 084e 803e ff3c db3f
000002f0: b994 92be 0337 003e 0ad9 f0be ccef 8ebe
00000300: 9d8f 7a40 6c1a 70bd 4f28 3cbe 0635 c23e
00000310: c8d2 cebc 0532 bbbe 1588 88bd 075f 7d3e
00000320: 0c91 f4be eab2 c3be 7d21 1e3d f2ab 62be
00000330: 3af2 4cbe 33aa 823e d1b3 6e3d 9d55 82bf
00000340: ce4c 863e eff8 873d c38e 3fbb 1439 b73e
00000350: 67b6 30c0 bee2 e0bc 31ce 823e 6ba7 1c3e
00000360: bff7 793d 9de4 0dbf 2ec4 073e ae37 1fbc
00000370: 22ff 24bf fed1 19bf 793f 82bf 0809 e5be
00000380: faa8 78be 66d9 f13e bc02 b73e 72d4 83be
00000390: 6932 b2bb 7645 373e 69fe 41bf e474 6fbf
000003a0: e639 39bf 4745 0ebf 4e11 48be 3b13 753f
000003b0: 946c 393e cf94 66bf eaa3 e2be 53d9 14bf
000003c0: abb8 94be 891c c4bd 1bc7 aabf 53d4 83be
000003d0: 26be 38bf 80f7 41bf 338e 5ebf ce48 2ebf
000003e0: 2427 3dbf 5765 22bf 45ed c9be 5373 91be
000003f0: a349 6abf b294 8ebe 9085 a5bd a8e9 1f3f
0.39975575 0.50661063 2.4075668 0.64463377 0.37336776 1.5334893 0.84528387 1.7685345
0.4761704 0.13335423 0.59928596 0.37818277 0.89115596 0.2659328 0.20365441 0.5940397
0.38100666 1.0804664 0.37637034 0.17322059 0.47670847 0.6625016 0.59759045 0.44041497
0.21506043 -0.28895935 -0.24642283 -0.062053297 -0.15941896 -0.57561255 1.5537981 0.32810658
0.33618748 -0.17740625 0.100796714 -0.20959 0.12484474 1.1241528 0.34732613 0.5915213
-1.0832531 -0.111231014 2.689793 0.6137982 0.21703282 0.12905696 0.42585063 1.0773436
0.33563465 0.7762683 -0.18311614 -0.44959825 -0.60637915 -0.37184685 -0.59589463 0.21507038
0.6359974 1.6864498 0.5328318 0.21636723 0.32326326 0.1572003 0.8302438 0.09626974
0.08050139 0.9880109 0.47238308 -0.66993445 -0.2813824 0.27786237 1.5150883 0.89522594
-0.90972435 -0.10933478 0.57220715 -0.45096424 -0.11754198 0.59411806 0.88773185 -0.061805006
-0.6525993 -0.34371805 -1.0506201 -0.52302134 -0.15525451 -0.062227543 0.58528566 -1.0356284
0.4023282 0.44943303 0.6872022 0.32236326 3.4808166 0.42094424 0.075428344 -0.13970067
0.8700398 -2.2323616 0.24890842 0.13800743 0.4131961 0.14414847 -2.5343173 -0.28912213
0.058158558 0.007703407 -0.08255724 -2.5086632 -0.636279 -0.30187178 0.61161554 0.8275452
0.41572213 0.40922374 0.5247194 -0.39854133 -0.26842946 -1.4158523 -0.19074947 -0.21168627
0.22541407 -0.050225105 -1.9693977 -0.89917475 0.001817703 -0.59936494 -0.89525074 0.2335029
-0.53329456 -0.47980365 -0.41871226 -0.21424918 -0.091940075 0.18596089 -0.107870765 -0.65968084
-0.2618862 -2.2886791 0.09469451 -0.16678397 -0.18617366 -0.3266022 0.152158 -0.39174283
-0.08481353 0.7653512 1.0707728 1.6654863 0.8320838 0.32462123 -0.60509056 -1.0722241
-1.5264192 -0.83408374 -0.33702382 -1.1114581 -0.22783408 -1.0947382 0.2339993 -0.18132044
0.51969695 0.26689976 0.28036267 -0.41348165 0.2640601 -0.18926331 -0.2995256 1.3864073
-0.057832252 -0.20488124 0.38781577 0.676183 0.15868597 0.383613 0.10632509 0.3243891
0.20210265 1.9330205 0.37935042 -0.5734996 0.15217842 0.31902477 0.042834505 -0.049157985
0.49517977 0.37851793 0.25059533 1.712799 -0.2862909 0.12520985 -0.47040588 -0.27917325
3.9150155 -0.058618948 -0.18374752 0.3793108 -0.025246993 -0.365616 -0.066665806 0.24743281
-0.47766912 -0.38222438 0.038606156 -0.22135904 -0.20014277 0.25520477 0.058276955 -1.0182377
0.26230472 0.06639277 -0.002922938 0.35785735 -2.761133 -0.02745187 0.25547937 0.1529824
0.061027285 -0.5542696 0.1325843 -0.009717865 -0.644518 -0.6008605 -1.017562 -0.44733453
-0.2428321 0.47236174 0.35744274 -0.2574802 -0.0054381383 0.17897591 -0.75778824 -0.93537736
-0.7235397 -0.5557446 -0.19537851 0.9573247 0.18107826 -0.90070814 -0.44265682 -0.5814411
-0.2904714 -0.09575755 -1.3342012 -0.25747928 -0.72165143 -0.7576828 -0.8693573 -0.6807984
-0.7388785 -0.6343588 -0.39438835 -0.28408298 -0.9151861 -0.2784782 -0.08082116 0.62465906

fc1.bias f4 [128]
00000000: 0581 043f 7b4d 6dbf 3eed a33f 6956 ae3f
00000010: b40a d1be 10f5 55bf bc41 cb3d db03 9fbf
00000020: 2d3b 953f dec9 61bf eec2 a73b 0841 a6be
00000030: 8088 d33f 4280 a53f a74e d43e 3cad 0140
00000040: 179d 593f 6015 28be 6a4d 523f f906 b73e
00000050: 5b6f 253f 428c 593f ea1a 73bf f81d b23f
00000060: 94fe b23f 60cf 563f 5714 c63f e55d 853f
00000070: 3805 a13f d81a 96bf dac4 093f d9ba af3f
00000080: c21f 903f 8796 a23f 24e4 723e 0500 2c3f
00000090: 58fe 923e 38c8 0d3f ddfa 14be 0d2b b23e
000000a0: 0896 9c3f 6fd7 bb3f 53e2 0abf 6fef c03f
000000b0: 7c9b 22bf bd1a 0f3f 9edd a73f 7819 6abf
000000c0: 8cbb 81be 6924 5cbf 04ef b83f fa08 963f
000000d0: 8eba a93f a31b 8f3f 9078 c9bd 0772 0f3f
000000e0: f664 aa3f aa34 c63f 68bc debd c8e8 b33f
000000f0: 3c31 8e3f 790d b8bd 207d bdbd 9380 7f3f
00000100: 8e30 833e 561d 05bf 5fc4 6a3f 96fe 713f
00000110: ccf4 513d 0857 5c3f 6328 a23f d266 cd3e
00000120: bca5 8f3f 7433 2dbf 0b95 663f 2cf4 8f3f
00000130: faa1 bf3f f05a d2bf ad94 863e d538 30bf
00000140: a34d 993f 887a 8c3f 4ae9 b13f bd0f 0c40
00000150: 9482 4a3f 352a 873f 1918 b73e e9d8 aa3d
00000160: 514c 89be 9145 20bf 3481 843f 5400 84bf
00000170: 5676 3bbe 4abc 963f cbc6 c13f f8b7 bd3f
00000180: 3b0a bdbe 51b2 13bf e807 ab3f 5a8d bd3f
00000190: 816b 043f f313 993f 46b1 5d3f da44 963f
000001a0: 7563 173f ccab 073f dbc5 863f ce46 20be
000001b0: ef1f c63f 2741 f03f f661 973f 4ffa 693e
000001c0: 9d2f 4cbc 29be 4dbf e661 9f3f dd58 5ebf
000001d0: 01d0 3f3e b335 8d3f 8ad6 6cbf e67d c53f
000001e0: 4a73 08c0 0813 d2be 49b6 563f 7ef4 2abf
000001f0: 0f4c e83e 915e a33f 5289 573f 0cb7 9dbf
0.5175937 -0.9269635 1.2806776 1.362012 -0.40828478 -0.8357706 0.09924647 -1.2423052
1.1658684 -0.8819865 0.005119673 -0.3247149 1.6526031 1.2929766 0.41466257 2.0261984
0.85005325 -0.16414404 0.82149374 0.35747507 0.6462304 0.8497964 -0.9496294 1.3915396
1.3983941 0.8391018 1.5474957 1.0419279 1.2579718 -1.1726942 0.53815997 1.3728896
1.1259692 1.2702187 0.23719841 0.6718753 0.28709674 0.55383635 -0.14548822 0.3479847
1.2233286 1.467512 -0.54251593 1.5073069 -0.635185 0.55900174 1.3114507 -0.9144511
-0.253384 -0.8599306 1.4447942 1.172149 1.3260057 1.1180309 -0.098374486 0.56033367
1.3312061 1.5484822 -0.108757794 1.4055414 1.1108775 -0.08986945 -0.09252381 0.99805564
0.25622982 -0.5199789 0.9170589 0.9452909 0.051258847 0.860703 1.2668575 0.40117508
1.1222453 -0.67656636 0.9007117 1.124639 1.4971306 -1.6434002 0.26285306 -0.6883672
1.1976818 1.0974894 1.3899319 2.1884606 0.79105496 1.0559756 0.35760573 0.083421536
-0.26816037 -0.6260615 1.035193 -1.03126 -0.1830686 1.1776211 1.5138792 1.4821768
-0.36921868 -0.57693964 1.3361788 1.4808762 0.5172654 1.1959213 0.8659862 1.1739762
0.59136134 0.52996516 1.0529131 -0.1565201 1.5478495 1.8769883 1.182677 0.22849391
-0.012462524 -0.80368286 1.2451751 -0.86854345 0.18731691 1.1032013 -0.9251486 1.5429046
-2.1320367 -0.41030145 0.83871895 -0.66779315 0.45370528 1.2763234 0.8419391 -1.2321486

fc2.weight f4 [128, 128]
00000000: 0da3 46bf 56b6 c2be bf2a 7c3e 12aa be3e
00000010: 93d6 85bf 2746 90bf 3256 ae3e be29 8ebf
00000020: 2481 8ebf b873 e4bf 05d3 ca3e 95d0 66bf
00000030: 794f d13e 6415 d63d af8a 963e fbb8 f33d
00000040: 97b7 3dbe 9976 d7bd 0cf5 95be 247b 953e
00000050: 449b 8dbf 8864 88bf 67db 1fbf 9ff2 ad3e
00000060: 9a71 0fbf c8cb 3dbe f756 f23e 0e67 323d
00000070: dae4 cf3e b66d cbbf d7d3 85bf ecea e03e
00000080: 8a1b 6c3e 51e7 953e ce17 3abf 653e 833c
00000090: 3085 8dbf 6f47 273d 4e60 aa3e f16a 023e
000000a0: ea8e 583f b788 493e 1663 05be 5d89 8c3e
000000b0: d662 0dbf 9278 f33d 08ac a9bf 220d bfbe
000000c0: ae7f bcbf dbdf 7d3f a0e9 9f3e 23cc a03e
000000d0: bff4 a33e 1850 a53e 6968 1e3e a73b d5bd
000000e0: 46f7 a13e 9472 103f 1cae f0bb 3447 c43e
000000f0: a018 51be 1d4e 373f 3360 97bf 7cc0 6bbf
00000100: 682a a0be a6ef 93bf 0128 ebbd c6cc 4d3f
00000110: 0bad 8fbe 7b7c fa3d 2f9a b8bd b550 6abf
00000120: 82ab 8f3e 09ad 2a3e c865 9dbb df1f d13d
00000130: e9e1 65bf 2cc5 48c0 069b 54bf 576f 05be
00000140: 6e35 d83e 5c82 9c3e a5bb 9f3d e564 65be
00000150: 5b2f 9abf fc91 9b3e a40f d3be 1a5e 233f
00000160: 0b3c 17c0 9431 03bf 5f58 003f e7f4 d5bf
00000170: c213 16bf 9407 babd fa27 8a3e 6f18 273f
00000180: 8c44 8ebf 418c d1bf 2f2a 5f3f 58c4 053f
00000190: 869b 3a3d 9881 c93e 0fdc 19bf bce8 1f3f
000001a0: ab62 97bf bf94 d73d 3ab3 02bc ce87 b13f
000001b0: 1495 8ebf d224 e33e acd5 fa3e c26d b5bf
000001c0: c288 de3e 8b91 8fbf 5346 fdbd 8dcf 07c0
000001d0: 557c 833b 75c2 f73e 5178 56bf a6ad 623f
000001e0: dc25 9b3e e843 9ebd 061f b8be 2161 97bf
000001f0: 0471 5dbf 4d0d a83e 4350 95be 0528 16bf
00000200: 4b44 71be 8f33 51be ff3e 7e3d e097 903e
00000210: 58c1 86be 4d13 993e b685 3cbe 975c 4bc0
00000220: bb28 bfbd c3a6 09c0 d5a3 81bf 26c4 05bf
00000230: 33c2 fdba 4897 ffbd a553 0cbe 6811 92bb
00000240: 2fdd 5cbf adea adbe c80d 563d b0d8 4ebe
00000250: 0ffd 73bf ad3c ba3d 76d9 dfbf 04e8 883e
00000260: f0f0 19bd 19eb 69bf 7331 633e 28fd 12be
00000270: dfd6 6f3e 68b2 47bf 1607 9ebf 65c4 fb3b
00000280: d2d2 aa3d 2685 823e f493 cfbd 0289 10be
00000290: 02c9 cdbd e301 21be 1f2b 093f 3436 263f
000002a0: 78ca 003f 32a6 1e3e 648f 8fbf a7f5 bc3d
000002b0: 1e53 903e 9b3d 73bd 8c2c 443d 77fd 0cbe
000002c0: f63f e43d 4faf a63f 98b6 0f3e fdee db3d
000002d0: dabd 2ebe dc4b 583d 45a0 59be c520 ffbe
000002e0: 6fe8 3b3e 7b78 d53e dfe6 3a3f ef01 8b3e
000002f0: a19b 17bd a4d9 25bd 65a8 6fbe f2b5 4fbe
00000300: 60e5 0ebe 98db 92be a540 2c3e 4f09 f23e
00000310: 63c4 e6bd 8f29 643e ea32 a63c 39fa e4ba
00000320: 2e2e 633e 187e 19bf 2e34 173d d17a 183e
00000330: e602 1ebf d962 58c0 c41f 18be cfa7 52bf
00000340: c221 803e 7a55 af3a 6b54 21bf c8b3 00be
00000350: da74 423e 1065 3a3e f749 23be 73de 203e
00000360: 768d 56be 7a18 813e 79d8 bebd 5e98 10bf
00000370: 3c30 023f b334 b4be b259 f43d d168 bb3e
00000380: 422d ecbd 04e6 bcbe e8b8 f03e dd53 533e
00000390: 4e0d 953d fd18 cf3d 5776 e9bd 165b 883f
000003a0: 7c23 cebe 9e5f cfbc 0806 4b3e f9b4 adbc
000003b0: 92c2 563e 27d1 873e 302a b7be 87b5 463d
000003c0: f075 d3bd efe3 753e abbc 93bf d7f9 1d3c
000003d0: b80a 9e3d 0a6c 0b3e f6b0 84bf 92ab 9e3e
000003e0: 674f cebf 5324 6e3e 8794 b0be 1e20 f03d
000003f0: 8aef 48bf 2892 843e 3d57 2dbc c802 6abe
-0.77592546 -0.38029736 0.24625681 0.37239128 -1.0456108 -1.1271409 0.34050137 -1.1106489
-1.113316 -1.7847815 0.3961412 -0.9016202 0.40880945 0.10453299 0.29402682 0.119005166
-0.18527065 -0.105206676 -0.29288518 0.2919551 -1.1063008 -1.065568 -0.62444156 0.33974168
-0.5603272 -0.18534768 0.47331974 0.04355531 0.40604287 -1.5892856 -1.0455273 0.4392923
0.2305738 0.29278043 -0.72692573 0.016020963 -1.1056271 0.04083961 0.332766 0.12736107
0.8459307 0.19681059 -0.1302608 0.2744855 -0.55228937 0.11888231 -1.3255625 -0.37314707
-1.4726465 0.991697 0.3123293 0.31405744 0.32022664 0.3228767 0.15469517 -0.104117684
0.31633967 0.5642483 -0.007344974 0.38335574 -0.2041955 0.71603566 -1.1826233 -0.9209058
-0.31282353 -1.155751 -0.114822395 0.80390584 -0.2806171 0.12230774 -0.09013783 -0.915294
0.28060538 0.1666757 -0.004803393 0.10211157 -0.89797837 -3.1370344 -0.83049047 -0.13030754
0.42228264 0.30568206 0.07799462 -0.2240177 -1.2045702 0.30384815 -0.4122287 0.6381546
-2.3630397 -0.51247525 0.50134844 -1.6715363 -0.586239 -0.09083477 0.26983625 0.6527166
-1.1114669 -1.6370927 0.8717374 0.5225272 0.045558475 0.39356685 -0.6010141 0.624645
-1.1826986 0.10526418 -0.007977301 1.3869569 -1.1139245 0.4436403 0.48991144 -1.417412
0.43463713 -1.1216291 -0.12366929 -2.122043 0.0040126243 0.48390546 -0.8377734 0.88546216
0.30302322 -0.07727796 -0.3596117 -1.1826516 -0.86500573 0.32822648 -0.29162797 -0.58654815
-0.23561208 -0.20429824 0.062071797 0.2824087 -0.26319385 0.29897538 -0.18410382 -3.1775262
-0.093339406 -2.1508033 -1.0128123 -0.52252424 -0.0019360244 -0.124800265 -0.13703783 -0.0044576414
-0.86275 -0.33968106 0.052259237 -0.20199847 -0.9530801 0.09093604 -1.7488239 0.26739514
-0.03758329 -0.91374356 0.22186832 -0.14354384 0.2342181 -0.780066 -1.2345912 0.007683324
0.08340992 0.2549221 -0.10135642 -0.14114764 -0.10048105 -0.15723376 0.5358142 0.6492646
0.5030894 0.15493086 -1.1215634 0.09226542 0.28188413 -0.059384923 0.047894046 -0.13768564
0.11145012 1.302225 0.14034498 0.10738943 -0.1706461 0.05280672 -0.21252544 -0.4982969
0.18350385 0.41693482 0.7300853 0.27149913 -0.037013654 -0.04049076 -0.23404081 -0.2028425
-0.13954687 -0.28683162 0.16821535 0.47272727 -0.112679265 0.22281478 0.02028795 -0.0017469592
0.22185585 -0.5995803 0.036914997 0.148906 -0.6172317 -3.3810332 -0.14855868 -0.82287306
0.25025755 0.0013376914 -0.63019437 -0.12568581 0.18989888 0.18202615 -0.15946184 0.15709858
-0.209524 0.25213987 -0.09318633 -0.56482494 0.5085485 -0.35196456 0.119311705 0.36603406
-0.1153207 -0.36894238 0.47016072 0.2063746 0.07277928 0.10112188 -0.11399525 1.0652797
-0.40261447 -0.025314149 0.1982652 -0.021204459 0.2097266 0.26526758 -0.35774374 0.04851296
-0.10325229 0.24012731 -1.1541952 0.009642086 0.07716888 0.13615432 -1.0366504 0.30990273
-1.6117982 0.23256044 -0.34488317 0.11724876 -0.7849051 0.25892758 -0.010579881 -0.22852623

fc2.bias f4 [128]
00000000: b54a 843f 330d e23e 93cd cb3e 4db0 433f
00000010: d9dd 803e 157f b73e f93c b83e 44bf 3c3f
00000020: 6479 a3bd c4f6 03bb 6c06 3f3f e5e1 c3bd
00000030: e997 853f 1696 223f eb79 7f3e 55c3 b23e
00000040: 3413 253f 1de5 7c3d 709a 093f 63a9 ce3e
00000050: 1472 173f e60a 103f ac5a 1b3f 0664 1d3f
00000060: 6a27 67bd 0ff1 783f 879e b73e 1b02 313f
00000070: 746e 833d 1ff9 213f e2ed 883e e040 bb3e
00000080: a334 aabe 1308 c03e e176 533f af10 d43c
00000090: 9fb4 5c3f de2f 9d3b f537 693d 0315 bfbd
000000a0: bc37 1c3c a10c 263d 7ab4 cabd f481 273e
000000b0: 0ac8 f7bc 6e71 dbbd c854 803e be51 3f3f
000000c0: 8392 583e 071f d0bd 2b01 dd3c d865 5c3f
000000d0: 5d8c e73e 2bf1 d63e 2d21 143c 0306 a6bd
000000e0: f2e7 2e3f cba4 2b3f 3e2b 273f fa25 2fbe
000000f0: a4bf e93e bb8e 55bc 19bf 5a3f 4619 463d
00000100: 46bf 14bd a017 0e3f 464a 4b3f 875e 0f3f
00000110: 48c4 073e 28fe 053f 4ab3 09be fc4f bf3e
00000120: a6eb fe3e e6b5 32bf b7ed a8bd 1cb7 9dbd
00000130: 7dc7 553f 5027 71be d143 4a3f 229b 903e
00000140: d8d7 5d3d 1ec6 dd3e 8d09 543f f9a0 cd3d
00000150: bb35 21be 0026 143f 73a1 8abe 85c8 aabd
00000160: 3c1c eeba 9218 223f 3730 f63e ae5a d6bd
00000170: 238b 153e 6630 863e 24d9 83bd d0f4 84bd
00000180: 159f 93bd b719 2ebe 1b69 113d 7660 17bc
00000190: 833a 70be 409b 01be b1cf b43e 48e4 f33e
000001a0: 4703 5f3d 50ef 3c3e 0819 633e 301f 113e
000001b0: d4b3 0c3f 12e7 aebc 825b 353f 475e fc3e
000001c0: e532 7c3d bb95 08be 2662 093f 4c73 1d3f
000001d0: aac7 1f3f 512a f03e d4ee 113e 4f4b a33e
000001e0: 3368 783e 4227 05bd 9315 403f 689a 4a3e
000001f0: a0f1 113f 104c 813e 73b9 293f 7096 943e
1.0335299 0.44150695 0.39805278 0.7644089 0.25169256 0.35839143 0.35984018 0.7372935
-0.07982138 -0.0020136097 0.74619174 -0.0956457 1.0436984 0.6351026 0.24948852 0.34914652
0.64482427 0.061741937 0.5375128 0.40363607 0.59158444 0.5626663 0.6068523 0.6148075
-0.056434073 0.97242826 0.35863134 0.6914384 0.06417552 0.63270754 0.2674399 0.36572933
-0.33243284 0.3750616 0.8260327 0.025886862 0.86213106 0.004796966 0.05693813 -0.093301795
0.0095347725 0.040539388 -0.098977044 0.16358167 -0.030246753 -0.10714994 0.25064683 0.74734104
0.2114964 -0.10162168 0.026978096 0.860929 0.45224276 0.41980872 0.009041113 -0.081066154
0.6832267 0.6704833 0.6530036 -0.1710433 0.45654023 -0.013034518 0.8544784 0.048363946
-0.036315225 0.555048 0.7941021 0.5600361 0.13258469 0.52340937 -0.134473 0.3736571
0.4978916 -0.69808805 -0.082484655 -0.07700941 0.8350752 -0.23550153 0.7900973 0.28243357
0.054160923 0.43315214 0.82827073 0.10040469 -0.15743153 0.57870483 -0.270763 -0.08339027
-0.0018166373 0.6331874 0.4808366 -0.104665145 0.14603858 0.262088 -0.06437901 -0.06492007
-0.07208077 -0.17001997 0.035500627 -0.009239307 -0.2345982 -0.1265688 0.35314706 0.47635102
0.054446485 0.18450665 0.22177517 0.14172053 0.54961896 -0.021350417 0.70842755 0.49290678
0.061571974 -0.13338368 0.5366539 0.61504054 0.6241404 0.46907285 0.14251262 0.31893393
0.24258499 -0.032508142 0.7503292 0.19785464 0.57009315 0.25253344 0.662986 0.29021025

fc3.weight f4 [2, 128]
00000000: 44ae 2f40 d33c 0140 c25a 0a40 4e0f cd3c
00000010: 90d4 2cbf 9591 2740 1424 a33d 9c4d 943f
00000020: a03c 13bd 2c33 24bd 84b9 0540 56dc 5bbc
00000030: 74c0 5940 e9c6 e53e 852c 45bf 20b8 833d
00000040: db34 6140 dd2e 0ebb c129 8840 5e83 5d3f
00000050: e461 0b3e d91b a63e 4de9 0140 74b6 ff3f
00000060: 04fc 9ebe 9b95 3540 898c 20bf fa6a 0340
00000070: 3a9a 87bd 35b9 383f a78d 253e 10aa eb3d
00000080: 782d 88be f30e 9f3d 166e 0840 85e7 7cbd
00000090: 5c97 3a40 807e 55be e456 54be 4cd9 0dbf
000000a0: 0102 b0bf 0c64 acbf 9ef3 00bb 03d3 14bf
000000b0: 33d9 49bf a391 42bd 8533 3f3d 9163 0040
000000c0: cc44 0740 152f dcbe de15 93bd 3b99 e93f
000000d0: 8684 e03f 11b8 d53f be56 dfba 5cc5 8abc
000000e0: 9e42 eb3f 10fa 953e 3ab5 ae3f 925a 33be
000000f0: 5162 a73d c9df 3d3f 05f5 5840 90d5 49bd
00000100: fbe7 5bbe dcb8 b03f 0495 0a40 a66e 163f
00000110: 4344 333d 5f03 0540 3e2c afbe 3862 bf3f
00000120: f8bf e03f 4374 1b3e e4e5 0c3d 485d 9c3d
00000130: a27c 1640 0161 66c0 2af8 cc3f 8eda 783d
00000140: 1d3f 8bbf 5709 e13e 9858 3740 1f19 a83f
00000150: 385e ddbf c50a 313e b2bb 1ebf c89b 7abd
00000160: 2c50 74bf bd83 4740 84b8 d03f 59fe abbe
00000170: 448e 8ebf efaf 0fbf 55ac 0dbd e2c2 b1bf
00000180: 2fd1 8abd 0e85 e5be 35f6 69bd 5b17 a6be
00000190: 22d1 17bf 32cf dfbf 1cb7 5d3d 1113 b93d
000001a0: 4e1c 013e f42d b0be 16f9 d93f 5304 8ebf
000001b0: 4d4d f53f 18e8 de3b 86a8 0640 531e 623e
000001c0: 6f5f 103c 1d6f 7ebf 7e4e 3c3e 1ae1 1c40
000001d0: 9821 1b3f 5a38 f63d 59b8 cdbf 3623 2e3e
000001e0: be97 f6bd cb31 b73c fe54 373f 62d7 8f3d
000001f0: 7457 503f 85a5 f23d 5cc5 0640 2635 f73d
00000200: f554 2840 9603 3140 cf7d 2740 0631 883f
00000210: efd1 cfbd 55f6 e6be 266d fe3d ed3c fc3e
00000220: f691 90bc 85f8 bc3d 06c9 0340 769f 33bd
00000230: 1ad9 6240 e47d 4e3f 7a73 1fbf af61 f33d
00000240: 0b9a 3540 9b5e b6bb 5e98 5a40 6f44 893e
00000250: 82ab e73d ded9 db3d 7499 3b40 6ae2 1d40
00000260: 1aed 91be 1455 4140 c5f6 b0be 1347 1640
00000270: f88c 62bd ead7 473f 3fe0 3d3e 191f ea3d
00000280: cfeb ef3d 89a1 dc3d bdab 3640 b23a 62bc
00000290: 1580 3040 e2e0 5ebc b426 a9be fb0c 64bf
000002a0: e290 a5bf 2179 b5bf eead 0abc 4e92 12bf
000002b0: 16cb 3dbf 7f2d ad3c cc43 f83d 205e b33f
000002c0: ce57 2f40 0034 81be 7813 2b3d a55d 0240
000002d0: 1279 0f40 69f8 f2be a5b8 15bd 1712 663a
000002e0: a4c9 0140 23c9 e03d f5a9 1340 33f3 9ebf
000002f0: 2194 063e 227e 2cbe 82ba 2a40 21f7 6bbd
00000300: b565 ebbd 6e42 9e3f ca43 0340 631d 2a3f
00000310: 3d73 003e 2757 ca3f cd09 c7be ed77 1840
00000320: 3065 be3f bbea 3a3f d777 3bbd ebe3 35bd
00000330: c7ca 0840 a386 fabf a450 d83f e516 e43d
00000340: 7d1c b2bf 8b3c 223f efb2 1640 32c8 893f
00000350: c494 0ac0 c228 393e bff4 cabe daad 8ebd
00000360: d7a7 7cbf f6b6 2140 b57f b13f 5540 28be
00000370: c48a b6bf 3807 1ebf 18c3 eebc 4a6e babe
00000380: c84a f5bb af53 9c3d 1cd5 37bb f797 26be
00000390: 067a 1ebf 0802 03c0 c8d9 023e 6e1e bf3d
000003a0: 3a58 75be db49 18be 1a51 ec3f 27ef a1bf
000003b0: 7047 d43f 7d84 833d c9d6 3f40 d733 883e
000003c0: c836 99bd a9fa 27bf 7018 3f3e bbb5 1340
000003d0: 3842 123f 10db c43d 0bce 98bf cb7a e43d
000003e0: 4858 a1bf 6a7e 33bd 6261 9240 01c1 403e
000003f0: cdf5 343f a02d 063e f120 1740 5048 1f3e
2.7450113 2.0193374 2.1617894 0.025031712 -0.67511845 2.6182606 0.07965866 1.1586185
-0.03594649 -0.040087864 2.089448 -0.013419231 3.4023714 0.4487832 -0.77021056 0.064316034
3.518851 -0.0021695413 4.255097 0.86528575 0.13611561 0.3244312 2.0298645 1.9977555
-0.31051648 2.8372562 -0.6271444 2.0534043 -0.06621213 0.72157604 0.16167317 0.11507046
-0.2659719 0.07766523 2.131719 -0.06174423 2.9154882 -0.20849037 -0.20736271 -0.55409694
-1.3750612 -1.3468032 -0.0019676457 -0.5813448 -0.78847045 -0.04750217 0.046679992 2.006077
2.113574 -0.4300467 -0.07181905 1.8249887 1.7540443 1.6696798 -0.0017039401 -0.016939811
1.8379705 0.29292345 1.3649056 -0.17515019 0.08173049 0.74169594 3.3899548 -0.049275935
-0.21475212 1.3806415 2.1653452 0.58762586 0.04376627 2.0783308 -0.34213442 1.4951849
1.7558584 0.15181069 0.03439893 0.076349795 2.351357 -3.5996706 1.6013234 0.060755305
-1.0878636 0.43952438 2.8647823 1.3132666 -1.7294378 0.17289265 -0.6200515 -0.06118372
-0.9543483 3.1174157 1.630631 -0.3359249 -1.1137166 -0.5612783 -0.034588177 -1.3887599
-0.0677818 -0.44828075 -0.057119567 -0.32439694 -0.59303486 -1.7485106 0.054129705 0.0903684
0.12608454 -0.3441006 1.702914 -1.109507 1.9164215 0.00680257 2.1040359 0.2208188
0.008811816 -0.99388295 0.18389317 2.451239 0.60598135 0.12022467 -1.6071883 0.1700562
-0.12040661 0.02236261 0.7161406 0.07023503 0.8138344 0.118479766 2.1057959 0.12070684
2.6301854 2.7658439 2.6170537 1.0639961 -0.101474635 -0.4510981 0.12423162 0.49265233
-0.017647725 0.09227089 2.0591445 -0.043853246 3.5445008 0.80660844 -0.6228558 0.11883866
2.837527 -0.005565477 3.4155498 0.26810023 0.113120094 0.10734914 2.931241 2.4669442
-0.28501207 3.0208178 -0.3456327 2.348088 -0.05531022 0.78063834 0.18542574 0.11431713
0.11714899 0.10772998 2.854232 -0.013807939 2.7578175 -0.013603421 -0.3303734 -0.89082307
-1.293484 -1.4177591 -0.00846432 -0.57254493 -0.7413801 0.021139858 0.12122306 1.40131
2.7397342 -0.25234985 0.041766614 2.0369656 2.2417645 -0.47455147 -0.036553044 0.00087764993
2.0279322 0.10975864 2.3072484 -1.2417969 0.13142444 -0.16844991 2.6676335 -0.057608727
-0.114940085 1.2364023 2.0510125 0.6645109 0.1254396 1.5807847 -0.38874665 2.3823197
1.487463 0.7301442 -0.045768585 -0.044406813 2.1373765 -1.9572338 1.689961 0.11137179
-1.3914944 0.6337363 2.3546712 1.076422 -2.16533 0.18081954 -0.3963985 -0.06966753
-0.98693603 2.526792 1.3867098 -0.1643079 -1.4261098 -0.61729765 -0.029145762 -0.3641227
-0.0074857213 0.07633149 -0.0028050607 -0.16268907 -0.61904943 -2.046999 0.1277839 0.09331976
-0.23959437 -0.14871924 1.846225 -1.2651109 1.6584301 0.064217545 2.9974844 0.2660205
-0.07481152 -0.6561685 0.18661666 2.307967 0.5713229 0.09612095 -1.1937879 0.111562334
-1.2605066 -0.04382173 4.5743876 0.18823625 0.7068756 0.13103342 2.3613856 0.15554929

fc3.bias f4 [2]
00000000: b34d a03e 3d1c 1f3e
0.3130928 0.15538116
