assignments/cart_pole_optimal_control/cart_pole_optimal_control/dqn/dqn_cartpole_earthquake.pth (torch, 73000 bytes, 6 tensors)

fc1.weight f4 [128, 5]
00000000: b346 01bf 553a 01bf eb64 5bbf 8b4f 5abe
00000010: a78f 8dbe aae0 2b3f 8406 f23d 4722 fbbf
00000020: f5fe 06bf d4ef f5be 84d7 07bf a2cb 47bd
00000030: 9e5f 933f f854 823e 6889 8cbb a83a 8cbd
00000040: 8fbb 40be 78a4 7abf 0c17 ccbd f399 cebd
00000050: 8d2e d2bd 4674 a8be acd1 f53f c608 1f3f
00000060: a702 c83e 555c b0be 14a1 1cbf b154 50c0
00000070: db46 3bbf 162d edbd 4f01 143f 27e6 d33e
00000080: 1b4b f13f 1722 fb3e ad40 323e 0a35 9b3e
00000090: 1426 ab3e 96ea cc3f 6388 dc3e d126 4f3e
000000a0: 1bc7 883f e6fa 1f3f fc26 2540 e2cb 213f
000000b0: fdaf a33e 31b7 3c3f 0505 433f b001 8e40
000000c0: a80b 923f 6c29 ce3e d930 82bf e173 c4be
000000d0: d1e4 e93e 5164 623d 1268 83be 0bdb 643d
000000e0: 70b5 d63d f77c 8f40 2cbb 7c3f a153 753d
000000f0: d7ad 24be 96f1 16be 10a1 9cbf 640d 8cbe
00000100: 4310 1cbe da81 e5bd ecbd 0cbe 4ce8 68c0
00000110: 394e 51bf 7b9d 41be 110e fd3e e541 233f
00000120: 1e72 4e40 77e7 413f 9b2a 893e 4941 3fbd
00000130: c52b 2ebe b747 21c0 1c40 2ebf fa46 f3bd
00000140: d04f 13bf c23f c0be 4a3e 21c0 7c27 1fbf
00000150: 4e05 82bd 4c7f 3b3f e2df 513e 8e1f c0be
00000160: a376 7c3d cb3f 943d d66f 793c 59d2 193e
00000170: 215c 6e40 7906 403f 3e38 413e 0859 44bf
00000180: b980 0ebe 6281 a63f 4da6 e73c 2e29 69be
00000190: 36d4 09be 775f 91be 2d82 3ac0 96ea 2bbf
000001a0: 09dd 86bd b5a4 e6bd 1d6c 1abe 531f 12c0
000001b0: 9a6f 1ebf 840a 40be df93 a8be 33bc 0dbf
000001c0: a558 0ec0 78fc 51bf 2b31 d0be 17bc dabe
000001d0: 0729 d3be 60d4 f4bf fe90 05bf cba4 15be
000001e0: c162 a5be acad a3be c877 01c0 bc85 0cbf
000001f0: fb15 56be e402 c43e 9c5d 8f3e 0582 b43f
00000200: baf7 bc3e ba12 3a3e fb55 113f 772a 7d3e
00000210: 722e 4a3f 72f5 a23e 1f5f 513e 71ac 03bf
00000220: af3b ad3e 4274 603f 1cdf e53e 077f 783e
00000230: 5ca3 7fbe b37c 1dbe e57e 9bbf fcad d6be
00000240: 45f1 96bd fbca a3be 509e 8ebe 9570 4fc0
00000250: 8c17 37bf 8aa8 00be 7da7 63bd 1ee1 9ebe
00000260: 7142 35c0 1a9b 61bf 0f9f 1ebe e869 ce3e
00000270: d9aa 983e 367b 953f db20 a23e 5122 5e3e
00000280: 0049 1a3f f942 e43e c94e a1be 17a5 6b3d
00000290: 374b 023f 356b b03e 3d09 a03e 7c5e 8a3f
000002a0: 0c95 313e 80b9 3f3e 3093 933c 8d17 9b3d
000002b0: 8dcc 40c0 0a1e 16bf dd3d 5e3d 37e0 6a3f
000002c0: 931a 0d3f 9017 0c40 ec01 093f 03a8 633e
000002d0: 4ead 7a3f bd94 453f fbc2 1f40 b6a7 263f
000002e0: 86aa 073f 5dc2 17bf bb19 7fbe 8155 183f
000002f0: c23a 36bc b69a d7bd e1e9 a23e 056d 043e
00000300: 3daf df3f 0c3e d03e e6d8 473e 9a4b 0cbd
00000310: 430b 983e c58b f73e fcca 913d a221 bf3e
00000320: 44c1 abbd b0bb 29be ffea d4bf bb74 9bbe
00000330: 59ed aebd a1bb 1bbe 5ba7 6fbe 412a 3cc0
00000340: d0ad 36bf 594f c7bd ad56 b9be 016d a3be
00000350: 636e b1bf 95c9 d6be 4b34 d0bd 48f8 2fbf
00000360: a428 30bf 833b 1dbf 54c7 b8be 2dce 83be
00000370: 21f3 e4be a5a7 76be 8978 a43f 0e4c 5d3e
00000380: 222f e13e 7c10 6bbb d1d9 60be e532 24c0
00000390: 352e 2abf bc0c 79bd af76 eebe 1b56 7bbe
000003a0: 86c7 0a40 c747 063f 648f 38be 96e0 57be
000003b0: 5f9b e4bd ce3e c8bf 2ead 0bbf 3a77 8e3b
000003c0: fac8 b5bd 8f6b 0fbe 5c96 133e 6bc3 3b3a
000003d0: c91d 4b3e b724 4dbe c471 98be 7dfd a0c0
000003e0: 369c aebf 93e6 9abd 1fde 133f 1bb2 e8bd
000003f0: 354e acbf 7569 9bbe df27 e7bd 7fbc 873e
-0.50498503 -0.5047963 -0.85700864 -0.21319406 -0.2764866 0.67139685 0.11817649 -1.9619836
-0.52732784 -0.48034537 -0.53063226 -0.048778184 1.1513555 0.2545545 -0.004288841 -0.06847125
-0.18821548 -0.9790721 -0.09965333 -0.10087957 -0.10262785 -0.3290121 1.9204612 0.6212276
0.39064524 -0.34445444 -0.61183286 -3.2551692 -0.7315499 -0.11580865 0.57814497 0.4138653
1.8851045 0.49049446 0.17407484 0.30313903 0.3342749 1.600909 0.43072805 0.20229651
1.0685762 0.62492216 2.5805044 0.63201725 0.31970206 0.7371703 0.76179534 4.437706
1.1409807 0.40265977 -1.0171157 -0.3836966 0.45682386 0.05527145 -0.25665337 0.05587296
0.10483825 4.4840045 0.987231 0.059894208 -0.1608194 -0.14740595 -1.2236652 -0.27353966
-0.15240578 -0.11206408 -0.13744324 -3.6391783 -0.81759983 -0.1890773 0.49424794 0.6377242
3.2257152 0.7574381 0.26790318 -0.04669312 -0.17008884 -2.5200021 -0.68066573 -0.11878772
-0.5754366 -0.37548643 -2.5194268 -0.62169623 -0.06348668 0.73241115 0.20495561 -0.37524074
0.06163658 0.0723873 0.015224418 0.15021648 3.724373 0.75009876 0.18869111 -0.7669835
-0.13916291 1.3008235 0.02827754 -0.22769615 -0.13459858 -0.28393146 -2.9141953 -0.67154825
-0.06585128 -0.11261884 -0.15080304 -2.2831619 -0.6188904 -0.18754011 -0.32925317 -0.55365294
-2.2241604 -0.8202586 -0.40662512 -0.42721626 -0.4124224 -1.9127312 -0.52174366 -0.14613645
-0.32301906 -0.3196844 -2.0229359 -0.5489156 -0.20906822 0.38283455 0.28001106 1.4102179
0.3690775 0.18171206 0.5677182 0.2472323 0.7897712 0.31827885 0.20446442 -0.51435
0.33834597 0.87677395 0.4489678 0.24267207 -0.2496466 -0.153796 -1.21481 -0.41929615
-0.07370237 -0.319908 -0.27855158 -3.2412465 -0.71520305 -0.12564293 -0.05557965 -0.31031126
-2.8321803 -0.8812729 -0.15490364 0.40315175 0.29817846 1.1678226 0.31665692 0.21692778
0.6026764 0.44582346 -0.3150542 0.05753049 0.5089602 0.34456792 0.31257048 1.0810084
0.17342013 0.18723106 0.01801452 0.07572851 -3.0124848 -0.58639586 0.054258216 0.91748375
0.55118674 2.1889381 0.5351856 0.2223206 0.9792069 0.7718008 2.4962757 0.65099657
0.52994573 -0.5928095 -0.24912159 0.5950547 -0.011122407 -0.10527556 0.3181906 0.12932213
1.7475353 0.40672338 0.19516334 -0.034251787 0.29696092 0.48348823 0.07118794 0.37330347
-0.08386472 -0.16575503 -1.6634215 -0.30362496 -0.08541364 -0.15208293 -0.23403685 -2.940079
-0.71358967 -0.09731931 -0.3619894 -0.319191 -1.3861812 -0.4195067 -0.10166224 -0.6873822
-0.6881201 -0.6141893 -0.36089575 -0.25743237 -0.44716743 -0.24087389 1.2849284 0.21611044
0.43981272 -0.003586798 -0.2195809 -2.5656064 -0.66476756 -0.06080316 -0.46574923 -0.24544565
2.168428 0.52453274 -0.18023449 -0.21081766 -0.11162447 -1.5644166 -0.54561126 0.004347709
-0.08876224 -0.14005874 0.14412826 0.00071626034 0.19835581 -0.20033537 -0.29774296 -5.0309434
-1.3641422 -0.0756351 0.57760805 -0.11362096 -1.3461367 -0.30353895 -0.11286902 0.26511

fc1.bias f4 [128]
00000000: 849f bc3e d745 4fbf 5ff9 b43f e8e3 953f
00000010: 74b0 31c0 4930 183f 5141 953f 1d67 e03f
00000020: 182e ff3f a7ed 38c0 9b1a 9b3f 4ecb 29c0
00000030: 4062 b83f a1c1 893f 2d6d 793c 6d9f 983f
00000040: 4f50 0140 61ca f13e 2429 db3f 5f1b a33f
00000050: 6d61 0ac0 cc13 a43f 169a 3ac0 e149 f43f
00000060: 2870 d93f 6ff8 cc3f ba5a fe3f 798e 3a3e
00000070: 253a ed3f 7a25 b4bf d0a1 0140 1a16 e73f
00000080: b8d3 253f a49d ce3f 3af7 fdbf 7cec e23f
00000090: 8afb a33f 1ebd db3d 05fc e2bf dcd2 ed3e
000000a0: c925 913f bc4c 913f c7df 7cbf 7424 993f
000000b0: e334 a8bf 0f76 f23f 011d e1bc 329d 753f
000000c0: 2d26 2ebf 50a9 0ac0 64fb c63f ddac 153f
000000d0: 6bbe 553e 160f ff3e 2ec7 333f 77a3 b53e
000000e0: b6d3 f23f ee59 f23f 2933 9e3e 98e6 e03f
000000f0: 98d7 b93f d785 c63e 1eb9 9e3f 5898 26bf
00000100: b195 bc3f fc22 b03f 568e 4c3f b08c bc3f
00000110: 15ab 943f ca87 523e f50c ca3f 872e a1be
00000120: f117 973f cac8 2cbf b2bd c93f 5ad1 1c40
00000130: 6116 0ac0 85e2 2ac0 f781 f93f 3f0d 6e3e
00000140: 0ac6 183e 0589 743f 8e42 093f b000 ee3f
00000150: b05b dcbe 0508 253f 678e 0540 6037 d2be
00000160: edb6 d33f ad62 b1bf 118c 0e40 7744 a9bd
00000170: bcc7 33be 15a4 b93f de14 553f e4e1 a43f
00000180: 380f 5ebe 7876 20bd 2247 ac3f aabd df3f
00000190: 05c4 de3f ac7f c53f c82b e23f d3f2 b53f
000001a0: 0038 733f 2199 a93f 0d5b d63f dd3b 02c0
000001b0: 0cd0 263e 632b 0340 d890 aa3f a45a a73b
000001c0: da76 8b3e 469a 8f3f 0a8a 9f3f 6e56 d3bc
000001d0: 6e20 293f d4e5 c23f 97dc 673f 0641 df3f
000001e0: 76fd a9bd 1da8 a63f 44c4 c33f 0489 14c0
000001f0: 8cda ffbf 9d88 de3e fff2 a73f 664e 24c0
0.3684045 -0.8096594 1.4138602 1.1710176 -2.7763948 0.5944868 1.1660558 1.7531468
1.9935942 -2.8895051 1.2117494 -2.6530337 1.4404984 1.0762216 0.015223783 1.1923653
2.0205266 0.47224715 1.712193 1.2742728 -2.1621964 1.2818542 -2.9156547 1.9085046
1.6987352 1.6013316 1.9871438 0.18218412 1.8533369 -1.4073937 2.0255013 1.805362
0.6477618 1.6141858 -1.9841073 1.7728419 1.2811139 0.107294306 -1.773316 0.46449935
1.1339656 1.1351542 -0.9877896 1.196425 -1.314114 1.8942279 -0.02747965 0.95942986
-0.68027 -2.166584 1.5545468 0.58466893 0.2087342 0.49816197 0.702258 0.35476276
1.8970859 1.8933694 0.30898407 1.7570372 1.4518919 0.38773987 1.2400243 -0.6507621
1.4733182 1.3760676 0.7990469 1.4730434 1.161471 0.20559612 1.5785204 -0.3148081
1.1804181 -0.6749388 1.5761015 2.4502778 -2.157616 -2.6700757 1.9492787 0.2324724
0.14919296 0.95521575 0.5361718 1.859396 -0.43038702 0.6446536 2.0868165 -0.41057873
1.65402 -1.3858238 2.227299 -0.08265012 -0.17556661 1.4503199 0.83234966 1.2881436
-0.21685493 -0.03917548 1.3459208 1.7479756 1.740357 1.5429587 1.7669611 1.4214729
0.95007324 1.3249856 1.6746536 -2.0349038 0.16290301 2.049523 1.3325453 0.0051072408
0.27239114 1.1218956 1.2464001 -0.025798049 0.6606511 1.5226388 0.9057097 1.7441719
-0.08300297 1.3020054 1.529427 -2.3208628 -1.998857 0.43463603 1.3121032 -2.567285

fc2.weight f4 [128, 128]
00000000: fd14 1a3d 15b6 f4be 6d7e 723d fae9 ee3d
00000010: 85f5 25bf 12a5 94bf 31d4 823e a2bc 71bd
00000020: b4c9 80bf 69ef 03c0 bf81 43bd dd5a 90bd
00000030: 01cf 1c3e 02b5 51be ec11 963c f1d7 3e3d
00000040: 4c5c a6be 060d 693e 77f8 12bf e685 3abd
00000050: 182e 60bf 9a44 dbbd add6 94bc a159 48be
00000060: f162 59bd 23e7 fc3d 557a 9f3e 4cac 0d3e
00000070: 8567 b03e 9ce8 6abe 4570 23be 8256 c03d
00000080: 9c49 1f3d 9942 923e dcd1 c3bf 2675 14bf
00000090: d63b 11be 4666 a93d 423a 03bf 673b 583c
000000a0: fffc ef3e dfb0 13be bd44 06bf 2666 e4bd
000000b0: bcf0 62bd 8593 ac3c e48d 8bbd 2be6 acbd
000000c0: 716d 753e 687b 873c 1184 543d 9143 ab3d
000000d0: 4d13 00be 269a 7c3e 4c2e 15be 44bd 08be
000000e0: a7f8 ae3d e90d 8c3e 79da 103f d909 313e
000000f0: 2a4f a7be d48e c3bf 0ea8 e9bd a66e 8cbe
00000100: a1b5 aebe fa2b d0bf 1a58 a83c 27b1 553e
00000110: 99c5 aa3d bd34 c63d 5e63 33be 51fe efbc
00000120: 69c3 dd3d dc51 2dbf 8495 2bbd e3ed 89bd
00000130: 0552 06c0 9cb5 76c0 17f7 1f3e 35d1 08bf
00000140: 9921 84be 6832 123e b9ee 863c 5941 2fbe
00000150: 311e 2dbe 31dc bebd 79f4 85bd 2131 a0bf
00000160: fe79 13be 9014 fbbe 49af 853e abc2 1abf
00000170: 6c1d b03e 5626 bbbd 017a 003e 1c9a 353d
00000180: 5e6a b2bd a58f 40bd 7531 f83e c822 c23d
00000190: b6f2 c0be 1875 b13e 08da 4bbe de29 ec3e
000001a0: d0df b1be 5e5a 943d dc10 46be 4d07 a83d
000001b0: 9d09 99bd 0820 943e 725d a83e a2dd 03be
000001c0: f28f 013d 3565 87be 46da ac3d aa8c 79bf
000001d0: 4e90 69be c167 5e3e 9978 7bbe f29f 573e
000001e0: 3ab3 8a3e 7844 0cbe cac3 07be fd75 13be
000001f0: 865d 90c0 02e8 5dbd 34bf 843e 8a64 04c0
00000200: 0d4f e5bc 3132 a5bf ccef 0fbe 8cda 9a3c
00000210: c684 903d e779 17bf 4e21 223e 9740 963d
00000220: fdc9 5dbf d2d4 a5bf 7cde e3be 138a a8c0
00000230: 3ade 1e3e 6707 743d 5bc1 c73e 2825 6dbf
00000240: a847 87bf 6456 253f 8361 cebe a211 97be
00000250: 1151 59c0 c0cc bcbd f9be 33c0 a1e8 5abe
00000260: 50a8 89be 48a6 d83e 9b88 88bc 9e9a 98bc
00000270: 1b86 c83e cb73 7b3e c135 e8be d297 c83e
00000280: 5fd5 ddbe 0c57 373e 93b8 64c0 79fb 1ebe
00000290: 105d 36bf cd23 003f 3e9b 0dbf 62dd 89be
000002a0: e02f 393e 9d97 1fbf 8f28 9b3e 55b8 0cbf
000002b0: 03ec 56bf 04cf 33be ecdf 773d 9407 9d3e
000002c0: b890 6e3e 80bb 38bf fbfd ed3d c6a2 9fbb
000002d0: bb8c 6cbb 0d4a 31bf 8fd3 13bf 73de 913e
000002e0: dc6a 3b3e edae 603d e21e f13e 4e39 9f3e
000002f0: 0af6 fcbe 648c c3bf 6430 ec3d d237 9a3d
00000300: d895 3e3d 6230 efbf e29f 95be f0d8 823e
00000310: 27b7 53bd f252 193f 794d 1bbe b19a 803b
00000320: 14dc 5c3e c819 1b3e 53b3 04bf 831d d13e
00000330: da39 37bf f2fb e2c0 b3b7 013f d3cf 04bf
00000340: be42 113e 381e c23a 4738 4ebe d75c 293c
00000350: 4a6c c63d 3d4e 5bbf 96e5 12bd 880f 90be
00000360: 2c59 5fbe 2feb d1be df67 843e 8d1a 75be
00000370: eb5f a9bd 24cb 00bf 82f2 1d3e 2cb2 0f3d
00000380: 6762 153e da95 77bf 9a7b 1e3f d0da 523e
00000390: f1e5 cbbe cf5e b93e 1536 adbe a0ae b73e
000003a0: 587a 23bf b113 1d3e 249c 71bf 64a5 d8be
000003b0: d388 b0bd 7c68 043f 1f54 db3e 4d1a b4be
000003c0: 0473 5fbe eb36 4abf 13d7 f3be 29b8 debe
000003d0: fe00 26bf 623c d03d 61ed 2cbe ccf1 183f
000003e0: e2dd 88be 50b9 66be 2d26 1ebe b552 0cbe
000003f0: cd89 d8c0 06a3 883e 65fa 863e 5f0b 98c0
0.037617672 -0.47795168 0.0592026 0.11665721 -0.6482776 -1.1612875 0.25552514 -0.059017785
-1.0061555 -2.0614874 -0.047731157 -0.07048581 0.1531334 -0.20479205 0.018319093 0.046592657
-0.32492292 0.22758874 -0.5741038 -0.04553785 -0.87570333 -0.10706444 -0.018168772 -0.1956544
-0.053072874 0.12348773 0.3114802 0.13835257 0.3445398 -0.22940296 -0.15960796 0.093915
0.03888856 0.28566435 -1.5298419 -0.57991254 -0.14182982 0.0827146 -0.5126077 0.013197756
0.46872708 -0.1442294 -0.52448636 -0.11152296 -0.055405363 0.021066437 -0.06814173 -0.084423386
0.2396753 0.016538337 0.05188376 0.08362497 -0.12507363 0.24668178 -0.14568442 -0.13353449
0.085435204 0.27354363 0.5658336 0.17288913 -0.32677585 -1.5277963 -0.11409007 -0.27428168
-0.34122947 -1.626342 0.020549823 0.2086836 0.0833847 0.09678028 -0.17518374 -0.029296072
0.10828287 -0.6770303 -0.041890636 -0.067348264 -2.098756 -3.8548346 0.15621601 -0.53444225
-0.25806883 0.14277041 0.016471254 -0.17114772 -0.16906048 -0.09319342 -0.0654077 -1.2514993
-0.14402005 -0.49039125 0.26110294 -0.6045329 0.34397447 -0.091381714 0.12546541 0.044336423
-0.08711694 -0.04701199 0.48475233 0.0947929 -0.37685174 0.34659648 -0.19907391 0.46125692
-0.34741068 0.07243799 -0.19342369 0.082045175 -0.07472537 0.28930688 0.32883793 -0.12877515
0.031631418 -0.26444402 0.0844007 -0.9748026 -0.22808954 0.21719266 -0.24557723 0.21057108
0.27089864 -0.13697994 -0.13258281 -0.14400478 -4.5114164 -0.054176338 0.25927126 -2.0686364
-0.027991796 -1.2905942 -0.14056319 0.01890304 0.070565745 -0.59170383 0.15833017 0.07336538
-0.86636335 -1.2955573 -0.4450568 -5.266855 0.1551446 0.059577372 0.39014706 -0.9263482
-1.0568743 0.64584947 -0.4030877 -0.2950564 -3.395573 -0.092187405 -2.808531 -0.21377803
-0.26886225 0.42314363 -0.016666701 -0.018628415 0.39164814 0.2455589 -0.4535351 0.3917833
-0.43326852 0.179043 -3.5737655 -0.15525617 -0.7123575 0.5005463 -0.55315006 -0.26926714
0.18084669 -0.6234072 0.3030438 -0.5496877 -0.83953875 -0.17559439 0.060516283 0.30669844
0.23297393 -0.721611 0.116207086 -0.004871699 -0.0036094624 -0.6925362 -0.5774469 0.28490028
0.18302482 0.054854322 0.47093874 0.31098408 -0.49406463 -1.5277219 0.11532667 0.07530178
0.04652962 -1.868664 -0.29223543 0.25556135 -0.05168834 0.5989219 -0.15166272 0.0039246907
0.21568328 0.15146554 -0.5183613 0.40842828 -0.7157265 -7.093255 0.5067093 -0.51879615
0.14185616 0.0014810031 -0.20138656 0.010337076 0.09688623 -0.8566626 -0.03586348 -0.2813685
-0.2181136 -0.40999743 0.25860497 -0.2393591 -0.08270248 -0.5030997 0.1542454 0.035082027
0.14588319 -0.9671303 0.6190735 0.20591283 -0.3982387 0.36205146 -0.33830324 0.35875416
-0.63858557 0.15339543 -0.94378877 -0.42313683 -0.08619847 0.5172193 0.42837617 -0.35176316
-0.21821219 -0.7899005 -0.47625026 -0.43499878 -0.64845264 0.10167767 -0.16887428 0.5974395
-0.26731783 -0.22531629 -0.1544425 -0.13703425 -6.7668214 0.26686877 0.2636291 -4.751388

fc2.bias f4 [128]
00000000: 1be8 393f 035d 743f 7611 abbf 9c60 383f
00000010: 8b8c 8f3f 08b3 71bf e077 743f 694a 613f
00000020: 3bc5 3fbf 79fb 423c 8720 803f ef93 6a3e
00000030: 14ed 873f 6f6b 923f 4c63 14bf 7124 753f
00000040: c532 283f 3eb9 633d 4519 9f3f 1969 eb3d
00000050: 999f 983f c60f 7c3f 7b61 813f bd0e 9c3f
00000060: 15ee 8abd 34db 803f b11d 1c3f 3d52 573f
00000070: 267e 403d 0048 743f 6e7e 593f 6b01 693f
00000080: 92fb 7d3f 5862 713f 6d6b 6a3f 4d0e abbe
00000090: e31d 953f 3d27 9bbf f63e c1be ba5e 8fbe
000000a0: 8465 7abe 0e51 7e3d 1a98 cabd 1d90 a8be
000000b0: 8071 7dbf 4f24 46bf 8340 633f 3005 843f
000000c0: 9dc9 463f 16de 373d d400 823f 4084 663f
000000d0: ca00 7a3f 56d1 323f ad8c 58bc c560 253f
000000e0: d714 213f 5200 843f 8221 383f cc3f 58bf
000000f0: 3617 883f c585 05be ca44 6c3f 0427 513d
00000100: e0ca 48bf 3666 5b3f 0c72 613f 4dbe 803f
00000110: bc83 4b3f 0948 363f 72f3 5dbf be9f 8f3f
00000120: de96 783f 50ed 74be 6578 4a3f d553 093f
00000130: b397 803f e62d 863e c59a 453f c7e2 643f
00000140: e8d1 6cbd c38a 6a3f 2799 143f 5a59 1abf
00000150: 4bca 76bf 8411 833f f497 32bf 0177 8bbe
00000160: 5d6a f5be 1edf 523f b81c 483f 6d02 8cbe
00000170: 6a86 583f 0e54 b0bf 4e6f 50bd cb72 863e
00000180: abd0 71bd f5b8 283f 4e53 a9be 3792 9e3a
00000190: f8d6 8c3f 74ee 7b3d 528c 753f b45b 873f
000001a0: cfc0 9fbc 23f6 5cbe b269 973f f36a 473d
000001b0: 8841 503f d0dd 683f a31c 5f3f 38c3 833f
000001c0: 9f5d 6f3d 24b1 37bf f588 783f 2936 923f
000001d0: 201d 7e3f 5604 833f 5b6a 02bf a0ef 523f
000001e0: 9997 0f3f 7d81 f0bd 439f b5be be63 4b3f
000001f0: 0a9f 6a3f abb2 683f cb66 6e3f ce2a 543f
0.7261979 0.95454425 -1.3364704 0.72022414 1.1214765 -0.94413805 0.95495415 0.88004166
-0.74910325 0.011900776 1.0009927 0.22907995 1.0619226 1.1439036 -0.57964015 0.9575873
0.6570247 0.055596583 1.2429587 0.11494655 1.1923705 0.9846157 1.0107874 1.2191998
-0.06783692 1.0066895 0.60982805 0.8410986 0.046995305 0.95422363 0.8495854 0.9101779
0.9921199 0.94290686 0.9157017 -0.33409348 1.1649746 -1.212135 -0.37743348 -0.28001958
-0.24452788 0.06208902 -0.09892292 -0.3292245 -0.9900131 -0.7739915 0.8877031 1.0314083
0.7765139 0.044889532 1.0156503 0.9004555 0.97657454 0.6985067 -0.0132171335 0.64600784
0.62922424 1.0312598 0.7192613 -0.84472346 1.0632083 -0.1303931 0.92292464 0.0510626
-0.7843456 0.85702837 0.88064647 1.0058075 0.79497886 0.71203667 -0.86699593 1.1220624
0.97105205 -0.23918653 0.7908996 0.5364354 1.0046295 0.26206893 0.77189285 0.89408535
-0.05781737 0.91617984 0.5804619 -0.6029259 -0.96402425 1.023972 -0.6976311 -0.2723923
-0.4793271 0.823717 0.7816882 -0.273456 0.845801 -1.3775651 -0.0508874 0.26259455
-0.059036892 0.6590722 -0.3307137 0.0012098019 1.1003103 0.061506703 0.95917237 1.057486
-0.019501118 -0.21578269 1.1829131 0.04868598 0.8134999 0.9096346 0.8715307 1.0293951
0.058438893 -0.7175467 0.9708398 1.1422778 0.9926319 1.0235698 -0.50943536 0.8239689
0.56090695 -0.11743448 -0.3547307 0.7944907 0.91648924 0.90897626 0.931256 0.82877815

fc3.weight f4 [2, 128]
00000000: fed8 ab3f eb18 f93f 41eb 84bf 07a6 55c0
00000010: eae3 1240 249a 31bf 6fbb 4b3e d603 193e
00000020: 0471 8dc0 44bc 98bd 9f62 2040 0640 b83e
00000030: 5170 4f40 0745 3d40 c43d 5cbf a86e 163e
00000040: f05c d6be b7d4 0ebb 5682 ff3f 3fc2 e03d
00000050: 3395 d23d ce0e f63d 1dc6 a93f b7d5 1e40
00000060: 72d1 823e dfd4 6740 307d 88c0 859d 783f
00000070: 9d39 80bd a4e2 df3f aa2a 4140 65fc 1f3e
00000080: 13d4 213f d195 0f3e 03aa 2d40 f20a 7fc0
00000090: 0b93 2940 3dcc 9abf fb6f f4be 1d15 76bf
000000a0: e257 91bf 1198 f2bc 14ab 25bc 7c3c 8bbf
000000b0: 9e43 15bf 73bf 9abf d98a f23d 42d5 013e
000000c0: 9cb7 4840 2249 2f3f 46c6 c93e ffe5 ec3f
000000d0: a31a 3940 1381 fa40 7a99 c5bc 1aa6 4a3f
000000e0: 9f0a 1540 3912 0a3e 4d4c 5e40 e53b 8ebf
000000f0: 420f fb3d f66e 95bf 3b6c 2040 1e34 81bc
00000100: f29a 85bf 46c8 1b3e 3954 153e 0186 513e
00000110: 1b03 d03d a756 ba3f d2c7 70bf 1753 1840
00000120: ce63 573f e7a0 0bbf a015 993f 5efc 9f3f
00000130: d69c 263e 7083 e3be 78e3 1b3e 922e 1a3e
00000140: ddc8 30bc 45e1 373e 9cd9 ca40 ff9e cb3f
00000150: 3154 72bf 688d 243e 3c29 9abf 06ae 90bf
00000160: 3f07 39bf df63 df3d 5893 503e 1041 89bf
00000170: 0512 e73f 591a 1fbf ea87 16bf 8928 6bbf
00000180: 5e56 88bd fb79 88bf 3248 b8be 353c 38bd
00000190: e2bf 2b40 9664 4bbf 7449 033e c90b 1c3e
000001a0: 3c22 ae3c 686d b2be acd9 6040 3e60 91bf
000001b0: 45cd 043e 9596 143e 85e3 88bf 15c8 ccbf
000001c0: 1b73 7b3c c7ab 37bf 3ce7 583e 0b02 023f
000001d0: bd63 293e cb67 ea3d 3820 aebf 8d3b ef3d
000001e0: 29ff 633f 2a45 50bf 5af5 cfbf b35a 073e
000001f0: eb04 fc3f 06e6 393e 2b36 113e 68e2 453e
00000200: 4abc b43f de4d 2e40 820d 88bf 4b00 43c0
00000210: 5ef8 0c40 0f73 81bf 8594 453e 30f0 fd3d
00000220: fcae 6cc0 7d5f 933d f597 d53f 920a f9bd
00000230: 84c5 17bf f7b6 5540 8d96 01bf bcac 2a3e
00000240: e6cb 26c0 4a88 eabc c6ae 5c40 37a6 d5be
00000250: e630 2c3e 2871 2a3e d778 983f b250 5c40
00000260: 37ca 3a3f 765c 3b40 0cc5 49c0 2913 3c3f
00000270: 4b45 42bd 386e 0140 98f4 2b40 62d5 423e
00000280: 274b d53e 30c0 223e 8807 ef3f eb68 8cc0
00000290: 6e82 0c40 0e23 83bf 3790 8bbe 016d 6abf
000002a0: 7d1a 75bf 814d 81bd eead 0abc fa2b edbe
000002b0: f73a 6bbf 0cb8 61bf 0cb5 153e b262 183e
000002c0: b1d9 2440 9682 703f 291f 0c3f 2419 9d3f
000002d0: c3c5 7f3f af07 36bf d81b ba3b 4d05 a53e
000002e0: f0ff 1540 5519 0f3e 0bb8 8440 75f3 8abf
000002f0: ae6d 103e fdae 9cbf 6c1c dc3f f288 41bd
00000300: d185 a6bf 030e db3d 0246 e93d 8548 593e
00000310: e27f 1e3e 1188 c43f 34dc 2abf b8a0 3040
00000320: 192e 6640 63b8 3cbf 849c 3e40 eaaf 23c0
00000330: e788 033e e41f 12bf a931 023e e0b3 4d3e
00000340: d7d8 01bd 9e7e 4a3e 4a75 f4bf a7c4 a23f
00000350: e9c1 60bf 48ab 293e 2c1f c1bf 5f6f 99bf
00000360: 0fa0 2bbf 7e92 b93d f29f 383e 193c 92bf
00000370: f27d f73f e66d 54bf 3e55 eebe afd1 7ebf
00000380: 4c66 33bc 3f3b d240 664e 26bf 180e 83bd
00000390: 5909 4940 4801 2dbf da45 f13d 7c48 3a3e
000003a0: f059 6cbd 38a3 2f3e 2c3a 4840 68f6 a2bf
000003b0: 1844 033e beb2 4d3e 20e9 1740 5616 3640
000003c0: 8b6c 89bd 09e4 71bf 08b5 693e a05c fc3e
000003d0: 81b4 5f3e 2759 2e3e a170 bbbf 583c 023e
000003e0: f27a a6bf d5cb 58bf a027 f7bf d158 393e
000003f0: 71ee 4c40 4c41 3a3e 2aae fb3d f5ce 2a3e
1.3425596 1.9460729 -1.0384294 -3.3382585 2.2951608 -0.69375825 0.19895719 0.1494287
-4.420046 -0.07457784 2.5060194 0.35986346 3.2412302 2.957338 -0.86031747 0.1469065
-0.4186778 -0.0021794268 1.996165 0.109745495 0.10282364 0.120145425 1.3263584 2.481794
0.2555042 3.6223676 -4.2652817 0.97115356 -0.06260989 1.749104 3.018229 0.15623625
0.63214225 0.14021994 2.7135017 -3.985043 2.6495998 -1.2093579 -0.47741684 -0.96125966
-1.1354945 -0.029613527 -0.010111589 -1.0877833 -0.583063 -1.2089676 0.11842889 0.12679008
3.1362066 0.68470967 0.39409083 1.8507689 2.8922508 7.828256 -0.024121035 0.791597
2.3287733 0.13483514 3.473407 -1.1112028 0.122587696 -1.1674488 2.5066059 -0.015771922
-1.043791 0.15213117 0.1458291 0.20461275 0.10156842 1.4557694 -0.940549 2.3800714
0.84136665 -0.5454239 1.1959724 1.2498891 0.16270766 -0.44436216 0.15223491 0.15056828
-0.010790077 0.17957027 6.3390636 1.5907897 -0.94659716 0.16069567 -1.2043834 -1.1303108
-0.7227668 0.10907721 0.20368707 -1.072298 1.8052374 -0.6214958 -0.5880114 -0.91858727
-0.06657098 -1.0662225 -0.3599258 -0.044979293 2.6835866 -0.79450357 0.12820989 0.1523887
0.021256559 -0.34849095 3.5132856 -1.1357496 0.12968929 0.14510567 -1.0694433 -1.599856
0.0153472675 -0.71746486 0.21181959 0.5078437 0.16541953 0.11445578 -1.3603582 0.1168128
0.8906122 -0.81355536 -1.624675 0.13218193 1.9689001 0.18154153 0.1418082 0.19324648
1.4119961 2.7235026 -1.0629122 -3.046893 2.2026591 -1.0113238 0.19294937 0.12399328
-3.6981802 0.07195947 1.6686999 -0.12160219 -0.5928576 3.3392923 -0.5062035 0.16667455
-2.606195 -0.02862944 3.4481673 -0.41728374 0.16815528 0.16644728 1.1911877 3.4424253
0.72964805 2.9275184 -3.1526518 0.73466736 -0.047429364 2.0223522 2.6868038 0.19026712
0.416589 0.15893626 1.8674173 -4.3878074 2.1954608 -1.0245073 -0.27258465 -0.91572577
-0.9574354 -0.06313611 -0.00846432 -0.46322614 -0.9188685 -0.8817146 0.14619845 0.148814
2.5757868 0.9394926 0.54735047 1.2273297 0.99911135 -0.71105474 0.0056795888 0.32230607
2.3437462 0.13974507 4.147466 -1.0855547 0.1410434 -1.2240902 1.7196174 -0.04724974
-1.3009588 0.10696032 0.11390306 0.2121907 0.15478471 1.5354024 -0.66742253 2.7598095
3.5965636 -0.7371885 2.978303 -2.557612 0.12845193 -0.5707991 0.12714256 0.20088148
-0.031700935 0.19774863 -1.9098294 1.2716264 -0.87795883 0.16569245 -1.5087638 -1.1987113
-0.67041105 0.09061144 0.18029764 -1.142459 1.933531 -0.8298019 -0.4654941 -0.995387
-0.010949682 6.569732 -0.64963377 -0.063991725 3.1411955 -0.6758008 0.11780901 0.18191713
-0.05770296 0.17152107 3.1285505 -1.2731447 0.12818944 0.20087716 2.3736038 2.8451133
-0.06710156 -0.9448858 0.22822964 0.49289417 0.218462 0.17026196 -1.4643747 0.12718332
-1.300627 -0.84686023 -1.9308968 0.18100287 3.2020533 0.18188971 0.122890785 0.1668051

fc3.bias f4 [2]
00000000: 747c 033f 42c8 213f
0.51361775 0.63196194
